v1/models/compressed/lcnn.tflite (tflite, 693128 bytes, 16 tensors)

arith.constant f4 [64]
00000000: dae4 713d a064 c0bc 36e4 243d 9d48 febb
00000010: ac52 acbc 6ced 28bd 9888 85bc 4730 1ebc
00000020: b3a4 9ebc e5b0 873c efc3 bbbc 6308 b33c
00000030: 902c b9ba 8a07 0f3d 5b7e 2ebc 0dd9 9f3b
00000040: b0b2 adbc bfe0 d8bc 1894 2dbd 94c7 5fbc
00000050: 277b c7bc c3f6 32bd 25b2 1d3c d8f6 95bc
00000060: 6c89 1abc f456 f8bb 77d2 a7bc 62f9 60bd
00000070: e3f6 cbbc 9d67 0ebd 2d67 d5bb 012c 16bd
00000080: 798f fabc fd1d ccbc b2b5 1fbd 68d6 f6bc
00000090: 0802 903c e680 10bd 63ea c63b 544e 17bc
000000a0: c93f 3f3d 7edc 54bc 6c8a 4dbd 4197 9ebc
000000b0: 214f ddbb dac6 eebc 5927 a1bc ceb3 2abd
000000c0: 7c7e 5ebc f2d7 063c 4bb1 4e3d 193a 42bd
000000d0: 25cc b6bc 5691 1dbc 28ad 06bd 99aa 4dbc
000000e0: da29 303d 8e84 9bbc 0cc1 633b 488d 59bc
000000f0: b8b2 c3bc fd7e 36bc a851 963d 252f 22bb
0.05905614 -0.023485482 0.0402567 -0.007760121 -0.021035515 -0.04124205 -0.016300485 -0.009655065
-0.019365644 0.016563842 -0.022920577 0.021854585 -0.001412766 0.0349193 -0.010650243 0.0048781694
-0.021203369 -0.026474355 -0.04237756 -0.013658423 -0.024350716 -0.04369236 0.0096249925 -0.01830618
-0.009432178 -0.007578725 -0.0204861 -0.05492533 -0.024897998 -0.034766782 -0.0065125437 -0.03666306
-0.030585991 -0.024916643 -0.038991638 -0.030131534 0.017579094 -0.035279177 0.0060704215 -0.0092349835
0.04669169 -0.012992023 -0.050180838 -0.019359233 -0.0067538177 -0.029147554 -0.019672083 -0.04167538
-0.013579961 0.008230196 0.05046205 -0.047418687 -0.02231414 -0.00961717 -0.03287998 -0.012552881
0.043008663 -0.018984105 0.0034752516 -0.013278313 -0.02388893 -0.011138675 0.073397934 -0.0024747339

arith.constant1 f4 [64]
00000000: 1b50 1bbd 01f0 e7bc bc47 7d3d 7bda fcbb
00000010: 293c abbc 5a5c 1bbd 9b9e 6cbd ed01 debc
00000020: df49 c83c 6fcb 0c3d 95b3 a5bc 46ae 8b3b
00000030: 85b9 8e3d 438c 1abc 98c2 0c3d 53d5 1a3d
00000040: 2af6 49bd 7148 ccbc d8b6 71bc 5e61 9bbb
00000050: 8166 bfbb 51a0 3bbd f42f d9bc e5b7 a6bc
00000060: 2835 c3bc 1352 c13d 42c2 ccbb 48fe 0dbb
00000070: 99f7 9cbd 4468 de3b e2e1 163c 5b79 9a3d
00000080: 8491 3e3b 58a5 e13c 471c 10bd 2f87 45bc
00000090: 9b75 5bbd d85b ad3c 61ea 18bd 1510 14bc
000000a0: e6aa 4bbc 437f 773c 2bf7 38bd 8f8b 50ba
000000b0: 14a1 3cbc 2595 b5bc b262 b7bc 1020 cabc
000000c0: 4562 983b d82f 7cbd 9814 f1bc 31c7 8fbd
000000d0: de66 00bd 1864 253d ecb0 2f3c 63fc 35bc
000000e0: ddf2 eabc 8a14 443d 685c bcbb 605b 2bbd
000000f0: 3ae8 c3bc 8db2 2a3c 4a74 c3bc 1d7f e73c
-0.03791819 -0.028312685 0.06183599 -0.0077164746 -0.02090271 -0.03792987 -0.057768445 -0.027100528
0.024449287 0.034373697 -0.020227233 0.0042627184 0.06968979 -0.009432855 0.034365267 0.037801098
-0.049307026 -0.024936887 -0.014753066 -0.0047418317 -0.005841077 -0.045807187 -0.026512124 -0.02035136
-0.023829058 0.094394825 -0.0062487433 -0.0021666456 -0.07664413 0.006787332 0.009209128 0.07542678
0.0029078433 0.027544662 -0.035183217 -0.012056156 -0.053578954 0.021161959 -0.037332896 -0.009037037
-0.012430882 0.015106025 -0.045157593 -0.0007955366 -0.011513013 -0.022165844 -0.022385929 -0.024673492
0.0046503865 -0.061569065 -0.029428765 -0.070204146 -0.0313481 0.04037866 0.010723334 -0.011107537
-0.02868026 0.04787115 -0.0057483204 -0.04183519 -0.023914445 0.010418546 -0.023859162 0.028258855

arith.constant2 f4 [64]
00000000: 646c 5cbc 53ae a1bc 0b10 67bd a943 efbc
00000010: 44e2 ae3a 8cca a73c 7377 0c3d 6fe8 67bc
00000020: 45d9 e3bc 3662 1e3d 5cf6 84bc 0790 82bd
00000030: dd62 56bc d4ce f4bc 4703 7fbc 08ca 82bd
00000040: e499 b93c 0229 a0bd 392c 24bc 2e21 d0bd
00000050: 0816 bdbc 49ca 1d3d bbdd 56bd 9685 bcbc
00000060: 5867 c1bc 3407 493d 7fbb 17bc 4da6 373c
00000070: 996c 38bc 5a5a c4bc 45a5 3bbc d3b8 643d
00000080: 61ac 4dbc ae96 75bd 2476 dfbb b410 9ebc
00000090: eb48 b7bc 38d6 dabc edf3 ca3b a2c8 95bc
000000a0: 005d 4b3d 731b f43b a272 73bd b4d7 77bd
000000b0: b9d2 11bc 83aa 63bb 9993 04bd 84f0 8b3d
000000c0: 220f 853d 075d 0fbc 22e5 9e3b ea48 36bc
000000d0: b53e b6bc 4a86 e7bb afa8 433c 9945 5539
000000e0: 95f0 2dbd 426f 09bd 370e 32b9 526c a23c
000000f0: bc23 99bd e994 4abd 1b5a 09bd ada6 87bc
-0.013453577 -0.019736445 -0.056411784 -0.029207068 0.0013342579 0.020482324 0.034293603 -0.014154538
-0.027813563 0.03866788 -0.016230755 -0.06375127 -0.013085094 -0.02988378 -0.015564746 -0.06386191
0.022656389 -0.078203216 -0.010020309 -0.101625785 -0.023081794 0.038522992 -0.052457552 -0.023012917
-0.023608848 0.049079135 -0.009261011 0.011209083 -0.01125636 -0.023968864 -0.011452978 0.055840325
-0.012553305 -0.059958152 -0.0068195034 -0.019295074 -0.022373637 -0.026713476 0.006193629 -0.018284146
0.04964924 0.0074495613 -0.059435494 -0.060508445 -0.008900338 -0.0034739084 -0.032367323 0.06832984
0.06497027 -0.008750207 0.004849092 -0.0111257825 -0.022246698 -0.007065569 0.011942073 0.0002033919
-0.042465765 -0.03355337 -0.00016980698 0.019827042 -0.07477519 -0.049458418 -0.033533197 -0.01655897

arith.constant3 f4 [64]
00000000: 1fe1 043b 6f55 4f3c 6b62 0ebd 8b66 cabc
00000010: 10af 46bc 42e0 49bc 9257 c0bb dcd2 cf3c
00000020: 85c4 89bc 0249 c9bc 1676 0ebd b6ed a9bc
00000030: afa9 91bc 78b9 27bd b928 fabb 5ccf 453d
00000040: de62 eabb 170e 7fbc 674c bfbc 7fee 14bd
00000050: 0029 403d dd39 173d 584b 02bd 8155 c73d
00000060: 6663 e8bc 1594 a5bb 3bf3 493d 5faf dbbc
00000070: b1f3 a5bc 3c3e 093b e690 c03c 77bf 0f3b
00000080: 4c45 b4bc 0bd4 41bc f3e4 0ebc 0e8b 3fbc
00000090: ecff 45bc d15e 073b 44c9 6cbc 7aeb a5bc
000000a0: ba1e 3dbd cc0f 50bb 6e24 ebbc 69d9 f7bb
000000b0: 1a23 75bc 6c8d debc be44 e8bc c98b 5b3c
000000c0: 0537 47bc 93d5 dcbc e2ca c6bc 5594 1d3d
000000d0: 577b 0ebd 032a 82bc dcc5 2abd 0768 99bc
000000e0: 532c 68bc e51e 393d 47a4 84bc 8797 0cbc
000000f0: 8200 44bc a934 8bbc d19a 32bd 01b9 8cbc
0.0020275784 0.012654646 -0.034761827 -0.0247071 -0.012126699 -0.012321534 -0.005869814 0.0253691
-0.01681734 -0.024570946 -0.034780584 -0.020743232 -0.017781107 -0.04094836 -0.007634249 0.048293456
-0.007152899 -0.015567324 -0.023351861 -0.03636026 0.0469141 0.036920417 -0.031810135 0.097331055
-0.02836771 -0.005053053 0.04930423 -0.026817022 -0.020257803 0.0020941636 0.023506593 0.002193419
-0.0220057 -0.01183034 -0.008721578 -0.011690868 -0.012084942 0.002065588 -0.014452282 -0.020253886
-0.04617188 -0.0031747697 -0.028703894 -0.007563759 -0.014961982 -0.027167045 -0.028353091 0.013400027
-0.012159114 -0.026957309 -0.024266664 0.03847154 -0.034785595 -0.015889173 -0.0416926 -0.018726362
-0.014170724 0.04519548 -0.016191615 -0.008581049 -0.011963012 -0.016992884 -0.043604676 -0.01717806

arith.constant4 f4 [64]
00000000: 5d10 72bc 6598 c1bb d6c8 9bbc d384 90bd
00000010: c389 74bc 5ec5 d7bb a88c 3d3b 570e 973b
00000020: 8a66 8b3d 8aff 8a3c 3ecc 783b e0b6 8abd
00000030: 2e35 95bc 9fc6 a8bc 8ac2 c2bc 06a1 a2bc
00000040: 298e 10bd 78ea fdbc ce47 ff3a d0d9 513d
00000050: 459f 96bd 9d61 883b f0ff e2bc d91d bd3c
00000060: fe42 a9bc d96a bd3d 24e3 93bc dc10 813d
00000070: abaa 153d 34c0 18bb e52d ebbd 033a 85bd
00000080: 2d17 e1bb d12b a2bc ab5e 78bd 39de ce3c
00000090: fa99 cc3c d500 84bd 5d17 5b3d 21ae f2bc
000000a0: 0f64 c2bc 83cc 13bd cf11 963b 85a8 cebc
000000b0: 0a76 523b dee6 94bd 26fd 423c 0d21 c8bc
000000c0: a7e8 f0bc 4ca4 d8bc 18fd 5339 c963 49bd
000000d0: 97ac 15bd 3854 8dbc 6fa2 51bd ed4f bebc
000000e0: 4dd5 4abd f297 f8bd a887 413a 9a16 3dbd
000000f0: 7b85 39bd 4794 a4bd 5fc3 7bbd e13d 073d
-0.014774409 -0.0059080594 -0.019016664 -0.07056584 -0.014925423 -0.0065848073 0.002892295 0.0046098637
0.06806667 0.016967554 0.0037963535 -0.06773162 -0.018213835 -0.020602522 -0.023774404 -0.019852173
-0.035291824 -0.030995592 0.0019476356 0.051233113 -0.07354597 0.004162027 -0.027709931 0.023085522
-0.020661827 0.09248895 -0.018052645 0.06302044 0.036539715 -0.0023307921 -0.11483363 -0.065052055
-0.006869218 -0.019796284 -0.060637157 0.025252448 0.024975765 -0.06445471 0.053489078 -0.029624047
-0.023729352 -0.03608371 0.0045797597 -0.02522684 0.0032113814 -0.07270597 0.011901176 -0.024429822
-0.029407812 -0.02644553 0.00020216813 -0.04916743 -0.036541548 -0.017252073 -0.0511803 -0.023231471
-0.049519826 -0.12138356 0.000738258 -0.046164133 -0.045293313 -0.08036094 -0.061465617 0.033017997

arith.constant5 f4 [64, 3, 3, 64]
00000000: e6dd 913c 98a3 253d 5883 6bbd 26a7 09bd
00000010: adf7 c3bb 8190 083b 668f 3fbc 828b 63bc
00000020: 32cc 193d 78c3 7c3d b442 80bd 3f76 4b3d
00000030: 41c8 633d 1e9a 6e3d 22c5 f7bb 84ff 04bd
00000040: f899 d7bd ab1b b6bd e6ac 05bd 5f06 f03c
00000050: a637 d83c a10d b9ba c6b4 c4bc 0e99 403c
00000060: e076 6ebd 03ed 0ebd 5791 363b 8f55 a9bc
00000070: fcbb 46bc eeed cc3d 8c00 f03c c95f 6c3d
00000080: 77f4 4a3d afee e3bc 7bff b3bd d8d9 a2ba
00000090: fb31 77bd bc78 d23c a3c2 b23d 75d5 64bc
000000a0: 04bd 543d f867 20bd f6e7 19bd 76e3 94bd
000000b0: 9d55 51bc 25f0 0c3b 583a 81bc 0e7c 9e3d
000000c0: 2d76 c73d 93b4 0ebb 98b7 7c3c c782 af3d
000000d0: 252f d83c 7d42 81bd 7424 77bd 7801 7f3d
000000e0: 0ba8 ba3b c13e 1f3d 2b16 363d d55c 563d
000000f0: d286 56bc 77c6 923d eb2d 1abd 32f7 96bc
00000100: fa8e 1dbb 05ca 82bc 66f6 b4bb 4811 033d
00000110: d0fc 12bc ce33 8bbd 259a ab3b e4e7 3c3d
00000120: fcf4 4d3d f8b7 533c c662 a5bd 726e aabc
00000130: 717b 233d 788d e3b9 9ac5 e6bc 47ef 493c
00000140: 6395 d43c c3c5 433d dd50 4d3c 9f57 57bd
00000150: 54b5 2dbb 5c66 c8bc f624 97bc 1c2d 55bc
00000160: 6585 153c fc52 463d c7f9 91bb d5ef ccbc
00000170: ecc7 0c3c 0d75 f53c af7a a43d 8ecd 643c
00000180: 5472 e63c 5d1c 0fbd 0761 afbd d1c5 f03c
00000190: b23d 1d3c 710f c93c 9f25 163d 7647 a9bd
000001a0: 0480 17bd cec7 a63d c9f9 44bd 752f 553d
000001b0: 02b0 04bd 5d62 0f3d 96d1 b43c 3e29 ebbc
000001c0: 875a f8bd cdab 8cbd 956e 43bd 0de2 45bc
000001d0: 5001 86bd d77b 4f3d a0c3 06bd cf95 ecbc
000001e0: 10a6 193d 1554 4f3d 7aa8 f03b 8579 823d
000001f0: b8aa f2bc 1921 ac3d db17 45bd e979 c43d
00000200: 5250 a8ba 1906 27bd b337 0eba 1bd3 c23b
00000210: 68ec 9d3d bedb 4dbd b47b 8a3d 2baf d2bc
00000220: e147 963c 92aa 613d 28b0 80bd b814 163d
00000230: fa56 2dbd 428f 5d3c dfd6 39bd 89af 3f3d
00000240: adce 31bd 22c8 50bd 1108 81bd 1949 5e3d
00000250: cd0c 7ebd 4078 a73c ee60 e8bc 4793 fb3c
00000260: 26b9 f7bc 779a d33c e591 85bc 9552 273c
00000270: fae1 093d 680c 8b3d dd3f 913d 3e33 b5bc
00000280: 08ed f13d 3fa1 813b 6554 333d c73c d9bc
00000290: ce7b dd3c 6310 1dbc db85 823d 6e4c bdbd
000002a0: c3de 583d bef3 173d a7fb 15bd c61e 8cbb
000002b0: 3ef9 e83a 10ce 98bd f66e f9bc 5838 b2b7
000002c0: e3bf 50bd 588c 9f3b a4ea 85bd 579a c6bb
000002d0: 9075 92bd 64ea 133d 7b9b 76bc a373 8cbd
000002e0: 5fc8 c5bd 87c9 c63c f4aa 873c bc82 80bc
000002f0: 0c93 2bbc f0b1 59bd dd4c 253c 5ea7 9c3d
00000300: 7fd6 a2bd a4eb 4b3d e8dd 82bd 8a23 8f3d
00000310: 40cb 6bbc d18c 41bc 9662 333d b753 84bb
00000320: ef49 243d ac5b ab3d 5f37 c9bc 9f92 04bd
00000330: 10f8 853d 0d91 1a3d 662c afbd ce1a 9e3d
00000340: 231e b13b 3d3a 07bd e475 57bd 484e 0b3d
00000350: 29b1 0d3d f8df 5b3d de4d 8bbc b652 b6bc
00000360: d342 c03b 8157 e8b8 48f0 80bd 4f87 693d
00000370: 5789 a0bb eb8d 0cbd ad31 1cbd e549 c9bc
00000380: 24e4 d1bb 4374 643d ede6 8dbd ef73 58bd
00000390: 1f30 aebd 9120 753c 6134 063c fca2 1f3d
000003a0: 5452 7b3b c36b bcbd d4da c23b 7a47 0abd
000003b0: 0fde 3fbd fc49 f93b e3e0 02bd cd25 45bd
000003c0: 728b 8b3c c1cd 9bbc 5e56 6b3c 8506 0d3c
000003d0: 3553 333d 80fd 46bd 0d9e 85bd 42f9 23bd
000003e0: 30c9 b6bc 28fd 8abc 624a 4cbd ec50 64bc
000003f0: 7e52 383c 5d36 74bd ba21 4bba 876f 913d
0.017806005 0.04043922 -0.057498306 -0.03360667 -0.005980453 0.0020838084 -0.011691904 -0.013888242
0.03754825 0.06170985 -0.062627226 0.049673315 0.0556109 0.058252446 -0.007561342 -0.03247024
-0.10527414 -0.08891996 -0.032635592 0.029299913 0.026393723 -0.0014118442 -0.02401198 0.011755241
-0.058218837 -0.034894 0.0027857625 -0.02067068 -0.01212978 0.10006319 0.029297136 0.057708535
0.049549546 -0.027823774 -0.087889634 -0.0012424542 -0.0603504 0.025692336 0.0872853 -0.013966908
0.05193807 -0.039161652 -0.03757473 -0.07269947 -0.012776759 0.0021505442 -0.01577489 0.07738505
0.09739337 -0.002177511 0.015424632 0.08569866 0.026389668 -0.0631151 -0.0603375 0.06225726
0.005696302 0.038878206 0.044454735 0.052334625 -0.013093667 0.071667604 -0.037641447 -0.018428419
-0.002404152 -0.015965471 -0.005522537 0.031998903 -0.008971408 -0.0679699 0.0052368813 0.046119586
0.050282463 0.01292228 -0.0807548 -0.020804618 0.039912645 -0.00043402216 -0.028170396 0.012325115
0.02595014 0.047796022 0.012531486 -0.052573796 -0.0026505785 -0.024462871 -0.018450242 -0.013011243
0.009126042 0.048418984 -0.0044548246 -0.025016705 0.008592587 0.02996304 0.080312125 0.013965024
0.028130688 -0.03493916 -0.08563428 0.029391201 0.009597229 0.024543496 0.036656972 -0.08265583
-0.03698732 0.081435785 -0.048089776 0.05204721 -0.032394417 0.035005916 0.022072595 -0.02870619
-0.12126642 -0.06868706 -0.04771288 -0.0120778205 -0.06543219 0.050655212 -0.032901406 -0.028880028
0.037511885 0.050617296 0.0073443027 0.06370834 -0.02962242 0.084047504 -0.048118453 0.09593565
-0.001284132 -0.0407773 -0.000542517 0.005945576 0.077111065 -0.05025839 0.06761876 -0.025718292
0.018344821 0.05509431 -0.06283599 0.036640853 -0.042319275 0.013522925 -0.045370933 0.046798263
-0.043409992 -0.05097211 -0.06300367 0.05426893 -0.062023927 0.020443082 -0.028366532 0.030709876
-0.030239653 0.02583049 -0.01630492 0.01021256 0.033662774 0.06789476 0.07092259 -0.02211916
0.11812788 0.0039559896 0.043781657 -0.026518239 0.027036574 -0.009586426 0.06373187 -0.092430934
0.052946817 0.037097685 -0.036616948 -0.0042761294 0.0017774475 -0.07461178 -0.030448418 -2.124549e-05
-0.050964247 0.004869025 -0.06538895 -0.006060879 -0.071513295 0.036112204 -0.015051718 -0.068579935
-0.096573584 0.024266018 0.016561009 -0.015687339 -0.01047207 -0.05314821 0.010089126 0.0764911
-0.07951068 0.04978527 -0.063899815 0.069892004 -0.01439172 -0.011813358 0.04379519 -0.0040383
0.04010957 0.083670944 -0.024562536 -0.03236639 0.06541455 0.037735987 -0.0855339 0.07719956
0.005405204 -0.033014525 -0.052602664 0.0340102 0.03459278 0.05368039 -0.017004903 -0.022256237
0.005867341 -0.00011078921 -0.0629583 0.057013806 -0.0048991847 -0.03431503 -0.038133312 -0.024571368
-0.0064053703 0.05577494 -0.06928811 -0.052844938 -0.08505272 0.014961378 0.008191199 0.038973793
0.0038348632 -0.092002414 0.0059464965 -0.03375957 -0.04684263 0.0076076966 -0.03195275 -0.048131753
0.017034266 -0.01901901 0.014363853 0.008607511 0.043780524 -0.0485816 -0.065242864 -0.040032633
-0.02231273 -0.016966417 -0.049875624 -0.013935309 0.011250136 -0.059622157 -0.0007748861 0.0710135

arith.constant6 f4 [64, 3, 3, 64]
00000000: ccd0 0f3d 4c23 e0bc e485 ab3c fdc2 eabc
00000010: a301 843b 9bea 3e3d 8a45 29bd 2dcb ea3c
00000020: d33b 773d 6d9f 94bc 0081 e83d 71a2 88bd
00000030: f5c6 b2bd e75e 333d 6e13 c8bd 0625 16bd
00000040: e605 45bd 2135 b73b 1b51 963a 1386 00bd
00000050: 7741 df3b 79af 9bbc e05a 6dbc 9a96 493c
00000060: f2fc 1a3d f792 98ba 5670 57bd 86e4 b33b
00000070: 549c f6ba 3888 113d 7677 2f3b c1f4 92bd
00000080: e19d 3fbd 4ced 53bd 9fa2 55bd 245a 91bc
00000090: 2954 2b3c 5bf8 8239 baf5 09bd aa6e 9b3b
000000a0: eb6b 96bd f8d3 98bd 6406 5f3d 8c41 f63c
000000b0: 4f84 533c bae8 1b3d 6710 a9bc 4447 c9bb
000000c0: fedd 3c3c e829 803c 3a1c aabc 9af5 493d
000000d0: 4c38 2f3d 0eb3 5fbd b12d babb 9dfb 8abd
000000e0: 0ecc 2dbc 82d3 bebc 1476 02bd 1bda cebc
000000f0: 4d29 bfbd da24 febb 54d3 d4ba 787e 36bd
00000100: f514 2e3d da75 f03c 0821 883d 36ed 40bd
00000110: 14bb 2cbd bb34 e1bb e312 513d d2e9 19bd
00000120: 6cc4 a73b 5394 843d f52b cebd f9d6 32bd
00000130: 8e88 ccbd b062 a4bb 7d8a 853d 8c36 88bd
00000140: c4e1 96bd 3a78 903c a897 743d 0801 afbd
00000150: 82b2 413c 1a04 ee3c f115 223b a74d 5abd
00000160: 579a c8bc 2934 a7bd 26ab 8abd 4b03 4a3c
00000170: c086 6fbd 2b88 4a3c fe00 abba 3495 9abd
00000180: 5872 ffbc 3204 f7bc 56aa 9abc 9f01 55bd
00000190: 9ffa 21bd ae03 c53c 4778 59bd efa9 393d
000001a0: a4d5 0e3c 1d6e 5cbd e558 733d 3d30 293b
000001b0: fce4 82bd e86e b8bc acef 363d 0e4c 1f3d
000001c0: f2e1 f7bc 43d8 17bd a8e2 653d 5950 8a3b
000001d0: b276 86bd cb94 8bbc 2519 17bd 6c44 1f3d
000001e0: 3c6f a3bd 7788 43bd 8daa c63c 563d 023d
000001f0: 1e80 933d 73e7 bc3d 5912 56bd cc57 a9bc
00000200: e3d9 93bd 48e6 953c 18a8 22bd b05c b0bd
00000210: 9155 abbb c906 6e3d a0cc c7bc 49e8 5e3c
00000220: e097 91bd 96a4 bc3d 7c36 45bd 0070 9a3c
00000230: 71f1 2ebd 92ea 33bd c9d1 80ba d4c5 92bd
00000240: eb25 1cbd b755 483b 3a25 7bbd 07d3 e6bd
00000250: bff2 6ebc bdc9 d9bc 7e21 a9bd e212 89bc
00000260: 5404 753d 2252 0dbd f838 dd3c dda1 d93c
00000270: a367 3cbd f070 0e3d 33dd be3c 3780 603c
00000280: c845 433c 4519 3d3d 0c3e 7ebd 6fed a83d
00000290: 6467 94bd c567 523d 9925 b1bd 0acf d0bc
000002a0: 1385 18bd 875f 283d 8f51 74bd 5e16 50bd
000002b0: 91c9 f13c 4fb1 6cbd 189e 223d c278 1dbc
000002c0: 76e3 98bd 9a3b ad3b 4dd1 c33d 3f96 20bd
000002d0: 7eb7 5e3d 43c8 41bd 530a 1d3d 1054 303d
000002e0: cf49 80bd 398b bbbc 4c91 9d3c d163 c83c
000002f0: fdb1 77bd 5966 403d d34b e9bc 66e5 773c
00000300: bc8c 493d 3179 88bd 6912 18bb 5eea 34bb
00000310: 9fda afbc 98d9 53bd 682c 1b3d 7d35 42bd
00000320: 42e5 ad3c 80ed a03c 3b2f 8bbc 7da4 aa3c
00000330: 59eb 0ebd be8c 02ba c558 84bc c4ad d73c
00000340: 1e47 c1bc 5dc9 e3bd 919c 24bd 5912 d9bd
00000350: 5d24 443d 3ee4 04bd 9f2c 573d 3b12 8e3d
00000360: 1f33 283c 62f6 b83b bd65 73bd d12b 463c
00000370: edd8 29bb 1739 02bd 43bb be3c e5ba bdbb
00000380: 7174 46bd 5485 89bc 0d96 6ebd ca99 9f3c
00000390: 0d54 223d 9b83 94bd 961d 563d c708 4ebd
000003a0: fe6c 7cbd af7d 5c3d 1dc6 6dbd d828 073d
000003b0: 8b58 503d 2f8a 803d c9ad 22bc cfee fcbc
000003c0: 864f 613d dcdf 2c3c bb05 ffbc f7c5 153d
000003d0: 4d78 473d 0190 c43c 0338 203d 371b 31bd
000003e0: 3122 303d c375 4dbd 0b48 edbb 9369 8fbd
000003f0: 73a5 b0ba df38 3ebd 9ea9 283b 44c2 99bb
0.035111234 -0.02736058 0.020937867 -0.02865743 0.0040285154 0.046610456 -0.041326083 0.028661335
0.060359787 -0.018142426 0.1135273 -0.06671608 -0.08729354 0.043791678 -0.09769331 -0.036656402
-0.04810133 0.0055910503 0.0011468263 -0.031377863 0.006813224 -0.01900457 -0.014486998 0.012303973
0.037838884 -0.0011640479 -0.052597366 0.0054898886 -0.00188149 0.0355303 0.0026774085 -0.07175589
-0.046781424 -0.051739976 -0.05215704 -0.017743178 0.010457077 0.00024980571 -0.03368161 0.004743417
-0.073448025 -0.07462305 0.054449454 0.030060552 0.012909963 0.038063742 -0.020637704 -0.0061425287
0.011527536 0.015644982 -0.020765413 0.04930649 0.0427783 -0.05461412 -0.0056817164 -0.06786273
-0.010607732 -0.023294214 -0.03185089 -0.025250485 -0.093340494 -0.007755858 -0.0016237297 -0.044554204
0.042500455 0.029353071 0.06646925 -0.047101222 -0.0421706 -0.006872741 0.051043402 -0.037576504
0.005119851 0.06473603 -0.10066978 -0.043662045 -0.09986983 -0.0050166473 0.06520555 -0.06651029
-0.0736728 0.017635453 0.059714943 -0.085451186 0.011822345 0.02905469 0.0024732316 -0.05329671
-0.024487657 -0.08164246 -0.06770925 0.012329887 -0.058478117 0.012361567 -0.001304656 -0.075479895
-0.031182453 -0.030153368 -0.01888005 -0.0520035 -0.03954565 0.024049606 -0.05309322 0.045328077
0.008717928 -0.05381595 0.05941095 0.0025816106 -0.063913316 -0.022513822 0.044662163 0.03889089
-0.030259106 -0.037071478 0.05612436 0.004221004 -0.06565608 -0.017038723 -0.036889214 0.03888361
-0.07980201 -0.047737565 0.024251247 0.031796776 0.07202171 0.09223833 -0.05226359 -0.020671748
-0.07219293 0.018298283 -0.039711088 -0.08611429 -0.005228706 0.05811194 -0.024389565 0.013605186
-0.07109046 0.0921108 -0.048147663 0.018852234 -0.042710725 -0.043924876 -0.0009828146 -0.07166639
-0.0381221 0.0030568668 -0.0613148 -0.11270719 -0.014584242 -0.026585454 -0.08258341 -0.016732637
0.05981858 -0.034502156 0.027004704 0.02656644 -0.045997273 0.034775674 0.023298835 0.013702444
0.011918493 0.046166677 -0.06207089 0.08248412 -0.07246283 0.051368494 -0.08649749 -0.025489349
-0.037236284 0.041106727 -0.059648093 -0.05080258 0.02951506 -0.057786282 0.03970155 -0.00961131
-0.0746526 0.005286646 0.09561405 -0.039205786 0.05437421 -0.047310125 0.038339924 0.04304892
-0.06264078 -0.022893535 0.019234322 0.024461659 -0.060472477 0.046972606 -0.028478539 0.015130376
0.04920648 -0.066637404 -0.0023204333 -0.0027605514 -0.021466551 -0.051721185 0.037884146 -0.04741429
0.021227483 0.019644499 -0.016990295 0.020830387 -0.034892414 -0.00049800787 -0.01615561 0.026327975
-0.023593482 -0.111223914 -0.040188376 -0.10599203 0.04788624 -0.03244423 0.05253279 0.06937071
0.0102660945 0.0056446055 -0.059423197 0.012095408 -0.0025916651 -0.031792726 0.023282653 -0.005790102
-0.04845089 -0.016787209 -0.05824857 0.019482512 0.03963094 -0.07251664 0.05227431 -0.05030134
-0.06162738 0.0538308 -0.058050264 0.032997936 0.05086569 0.062763564 -0.009929129 -0.030875592
0.05500748 0.010551419 -0.031130662 0.036565747 0.048698712 0.023994448 0.039115917 -0.043238845
0.043001357 -0.050161134 -0.007241254 -0.070025586 -0.0013477042 -0.046440955 0.0025735865 -0.0046923477

arith.constant7 f4 [64, 3, 3, 64]
00000000: af59 a0bc 96c3 79bd c93a 3f3d 1cd3 36bb
00000010: 32e9 d43c 7ebe 27bb c346 923d 4a93 413d
00000020: 17cf e8bb 9cad 57bd bd86 9bbd 2129 283d
00000030: ac12 3dbd 0e5f 6e3d de9e 44bc 32f1 49bb
00000040: 574e 933d 3a4c c03c ce46 d4bb 2df3 0b3d
00000050: d32a 993a e77b 97bd c74e 983b 0348 c53d
00000060: a9f7 9dbb ff8b 5bbd 8f1c 443d d6af 243c
00000070: cfe2 8ebc 2106 793b 9acb ad3d 1950 b03c
00000080: 6a7f e7bc ed6a bc3c c592 813d 7bb0 a93b
00000090: ba59 663d 3863 f1bd bef1 e33c adba dfbc
000000a0: 3c29 73bd 6a57 3ebd ecde 113d 2815 423d
000000b0: a5f3 8bbd 9db8 65bd 06cf bcbc 1f19 1c3d
000000c0: 16f9 71bc f143 3f3c 373c 50bd d7ef 9fbd
000000d0: eac2 bbbb 553c 92bd 4a17 943d be88 c03d
000000e0: e14f 1f3d 95b2 363d 21d1 2fbd 14cc ca3d
000000f0: 466e b5bc 791e 98bc 848c 593b 3a31 69bc
00000100: f83e 62bd 9aa4 a6bc 74d2 5cbd ca09 713b
00000110: 18a1 87bd d064 993c f2a3 97bd b8b9 393b
00000120: af42 533d 1282 803d 5b7c abbd 4f33 25bc
00000130: 755e 90bd d261 b43c dbfa 4ebd 750a 063c
00000140: 5599 debb 8333 be3c 9caf 80bd 4914 a53c
00000150: 33ce ecbc f0b1 b2bc 54db a5bc f6df e43c
00000160: 5d40 5b3d 09a1 8dbd 8404 ca3c 5842 15bd
00000170: 9f14 26bd 644c 2c3d 43e4 1e3d 5af1 5a3d
00000180: dd63 7ebd 6ae2 93bd 2534 bebb 5c11 25bd
00000190: 6401 423d e27d fcbd a180 413a 575e 9dbc
000001a0: e841 eebd 34d9 053d 6976 74bc b3ba 03bd
000001b0: 2ea7 ea3c 578d 0bbd 6919 05bd f7f1 443d
000001c0: 6791 1e3c a82b d53c 7c86 9abc 5900 7f3d
000001d0: 1d50 8f3d 4027 093d 9a91 20bc 6c09 003d
000001e0: a6e0 5a3d bfe8 cc3b bdd7 893c 9648 3d3c
000001f0: d704 89bd eebf c7bd ee62 9f3d e9df 41bd
00000200: 186b 5d3d eac0 7dbc 6785 d039 8ec9 b63d
00000210: 719d c93c 0d33 e1bc b082 173c 085c 9cbc
00000220: ff9f 63bc d03e 3dbd 3244 6c3c 06a0 9c3c
00000230: 9f17 923c f668 f63c 03cd 90bd 308e 94bd
00000240: 31e2 4abd 7b99 ef3a e150 fbbc 7180 763d
00000250: 310b 083d e45c 46bd 8f3c f9bc e347 f9bc
00000260: d0ff 0c3d fced 8a3d 0761 603c d42d 9fbd
00000270: c9d3 603d 8f13 33bd 5ff6 f23c b298 873d
00000280: b22d 19bd fd24 53bd 9d67 6c3d a975 a33c
00000290: 3a36 de3c 7c77 b9bd ae0f 2fbd 38c8 f1bc
000002a0: 6130 0dbd 81a5 833d e536 8e3c 6642 3abc
000002b0: 2094 763d 63b8 f83b a682 75bd eb2a 953d
000002c0: bca2 8c3d 0d0a 7f3d a45a 1a3d 63af 733d
000002d0: 7e5d 683d 3dd2 9d3c 8913 9ebd 1afd bc3d
000002e0: b45b 8e3a b093 debc cfc9 f53b b516 47bd
000002f0: ac12 69bd d714 a1bd 0b5f 553d c7c7 6ebd
00000300: 9e59 a6bc b731 dbbd 4764 1fbd 4d9f 8a3d
00000310: 8cd8 763c 067a e13c 4650 a9bb 2dac 883d
00000320: b4da 6dbb afba 223d d3e4 8cbb 21d9 c7bc
00000330: 23a5 b7bd 1354 36bc 8397 283c 30af a5bc
00000340: 66f7 813d 586f 19bd 8cf4 c23b 7e50 0bbd
00000350: 697c 873d b063 9bbd 4233 8a3b ce1d d63d
00000360: 6c0b 3a3d d1c4 663c de1d 043a 9ebc c2ba
00000370: fe48 423d a3fd 7fbd 431c 0dbd 0bbb 5dbc
00000380: a19d 0b3d 3f8a 6abc 2ee3 523d 294a 2d3d
00000390: 1aa1 503d 06ce aebd 6f49 86bd 1f9d 9d3c
000003a0: 5f84 753d d2a7 943d ffb7 7f3d 47a0 55bc
000003b0: 89e0 64bd d62e da3c b688 8bbc 38e5 2abd
000003c0: daea f3bc b4b8 7b3d 2cb9 cebc f5c5 90bd
000003d0: 4777 e03c 8de3 d1bc d8d0 acbd 2bcf 8d3d
000003e0: 598a 30bd 147a a7bc cada ba3c 5e17 5cbd
000003f0: 4bd6 c8bc be81 e3bc dd50 d03b 6120 fa3c
-0.019574014 -0.06097754 0.04668692 -0.0027896827 0.025990102 -0.002559572 0.07142403 0.047259606
-0.007104765 -0.0526558 -0.07594059 0.04105485 -0.046160385 0.05819612 -0.0120007675 -0.003081393
0.071926765 0.023473848 -0.006478167 0.034167457 0.0011685736 -0.07396679 0.004648063 0.09632876
-0.004820783 -0.053600308 0.047878798 0.010051688 -0.017442135 0.0037998038 0.084860995 0.021522569
-0.028258998 0.023000205 0.06326822 0.005178509 0.056237914 -0.117865026 0.027825233 -0.027310694
-0.059365496 -0.046470083 0.035612985 0.047383457 -0.06833581 -0.056084264 -0.023047935 0.038109895
-0.014768859 0.011673913 -0.050838675 -0.07809418 -0.0057300227 -0.07140414 0.072310045 0.094010815
0.038894538 0.044603903 -0.04292405 0.09902206 -0.022147309 -0.018569218 0.0033195326 -0.014232928
-0.055235833 -0.02034216 -0.05391164 0.0036779516 -0.06622523 0.018724829 -0.07404317 0.0028339457
0.051577266 0.06274809 -0.08373328 -0.010083034 -0.07049266 0.0220193 -0.050532203 0.008181204
-0.006793181 0.023217922 -0.06283495 0.020151274 -0.028906917 -0.021813363 -0.020246185 0.027938824
0.05352818 -0.06915481 0.024660356 -0.036440223 -0.04054701 0.04206504 0.038791906 0.053452827
-0.062106956 -0.072209194 -0.005804556 -0.04029976 0.047364607 -0.12328698 0.0007381533 -0.019210024
-0.11633664 0.032677844 -0.014920809 -0.032160472 0.02864417 -0.03407034 -0.032494936 0.04808232
0.009678221 0.026021793 -0.018862955 0.06225619 0.06997702 0.033484697 -0.009800339 0.031258985
0.053436898 0.0062533314 0.016826505 0.01155295 -0.06690376 -0.097534046 0.07782541 -0.047332678
0.05405721 -0.015487889 0.00039772244 0.08925162 0.024611207 -0.027490163 0.009247467 -0.019086853
-0.0138931265 -0.04620248 0.014420556 0.019119274 0.017833529 0.030079346 -0.07070353 -0.072536826
-0.04953212 0.0018279994 -0.030678215 0.060181085 0.033213798 -0.04842843 -0.030424384 -0.030429786
0.03442365 0.06783673 0.013695008 -0.07772413 0.054889474 -0.043719824 0.029658495 0.06620921
-0.037397094 -0.051548947 0.057716 0.019953566 0.027125467 -0.09055993 -0.042739563 -0.029514417
-0.034469966 0.06428052 0.01736016 -0.01136837 0.060199857 0.00759034 -0.05993905 0.072835766
0.068669766 0.062265445 0.037684098 0.059493434 0.056729786 0.019265288 -0.0771857 0.09227963
0.001086107 -0.027170032 0.007500864 -0.04860564 -0.056902573 -0.07865303 0.052092593 -0.05829599
-0.020306405 -0.10702842 -0.03891399 0.067686655 0.015066277 0.027524006 -0.00516704 0.06673465
-0.0036293687 0.039728817 -0.004299739 -0.024395527 -0.08967044 -0.011128443 0.010290029 -0.020225137
0.06346016 -0.0374597 0.0059495624 -0.03401231 0.06615526 -0.07587373 0.004217536 0.104549035
0.04542105 0.014085011 0.0005039851 -0.0014857238 0.047432892 -0.062497746 -0.03445078 -0.013533364
0.034085874 -0.014315187 0.051486187 0.042307053 0.05093489 -0.085353896 -0.06556975 0.01923996
0.059940692 0.07258572 0.06243133 -0.013038701 -0.055878196 0.026633661 -0.017032962 -0.041722506
-0.029775072 0.061455444 -0.025234781 -0.07069007 0.027400626 -0.0256212 -0.08438271 0.0692428
-0.04310069 -0.020443954 0.022809405 -0.053733222 -0.024516245 -0.027771827 0.006357296 0.030533018

arith.constant8 f4 [64, 3, 3, 64]
00000000: 4912 823d 28ca 093c 1681 d2bb 6b4f 9b3c
00000010: cc79 843d 173b 233d 66ed 0fbd 1a51 29bd
00000020: 8eaf eabd b7de 32bd 127a f83b 66c5 903c
00000030: 1498 023d 48cd d3bc 5d02 643d f3ca 85bc
00000040: 0d32 a63c 3d06 813d 99bc 2a3d 26d6 d0bd
00000050: 4e2f d43c 065e 853d eda4 d13c f39f 25bd
00000060: d2a5 2fbb ae4b e83c dd5d ab3d 9578 333d
00000070: a337 b33c dddd 0e3d 97ea 76bd 97b6 11bd
00000080: ba6a a53d 0185 893d fb5d 9c3b acb6 983d
00000090: 57fc e6bd f2a7 b83b 98fa 3abd c7d2 593d
000000a0: ad72 043d 1854 363d 99f1 973d c87b 36bd
000000b0: f56d 86bd 2b79 203d 6600 833d e54a 183d
000000c0: 596d dcbb 089e 803c ec79 a93d 202a 83bc
000000d0: cd78 0cbd 0f90 9c3d 8645 6d3a 2945 8e3d
000000e0: ea9b 263d 8ba0 573d 983a cb3b e0fa b0bd
000000f0: 6ab6 b03d 46ae 293d d00b 313d b09a 2d3d
00000100: 2ef9 9a3c d369 54bd 92ee a0bd edb1 73bd
00000110: b8d2 033d 7fcc d53b 34da 123d e3f6 9f3c
00000120: 6f28 40bd 4d96 9cbc 945a 04bd aca8 613d
00000130: f8c0 443d c925 9d3d 2260 e23c d2fe 6b3d
00000140: ceef b53d d962 27bd 5e88 963c 6df3 23be
00000150: 1b11 943b e122 91bd b84f c0ba ede1 fc3c
00000160: 1e44 20bd 8de9 b53d bd3d 6cbd 2961 223d
00000170: b153 05bd 7837 0bbc 6187 00bd 95d6 0dbd
00000180: 02f7 54bc 32b6 87bc 4997 95ba f87d 353d
00000190: fc7a a53d 21b4 2dbd 7bd0 61bd ae58 59bd
000001a0: 4ce9 813c 9c79 433d 9b76 323b ec48 923d
000001b0: f641 2b3d bd0f 753d d9ff f63c bb5d 253d
000001c0: ad75 14bd defc 903d 6b1b 323c 12ca ecbc
000001d0: 1bcf d93c 9426 8a3d 426e 2fbc a055 98bd
000001e0: dfb6 1bbd e7ce 47bd ff60 f6bc 1278 c23c
000001f0: 989e 77bc 7fcf ab3c 8b51 da3c 9e50 8f3d
00000200: 09d3 a13d 4cf5 213c ed09 a03b a4cd 2cbd
00000210: e12b 8cbd ed1e afba 2a12 3c3c 9a52 b23d
00000220: eba9 323b 31e7 ddbd 5f84 79bd 1d89 843d
00000230: d894 92bd 8673 513d a056 5b3c 3086 81bb
00000240: 8568 8e3c 55d2 febc 1ff5 793d ce54 9ebd
00000250: e435 27bd 6858 81bd 01c1 f9bc 3ae5 8e3d
00000260: bbfc 6ebd 7bd6 c13c 1a91 4cbd 6e42 5439
00000270: 7eef ffbb 7848 2b3d c96e 82bd 541f 943c
00000280: 53bb b5bc 9dfa 65bd a159 e43a 3686 12bd
00000290: 576f 153d 3d30 24bd 4f9b dc3c 8c38 f2bb
000002a0: 4d9e 5b3d 3177 92bd 6598 813d f2dd 35bd
000002b0: 126e ce3c 2511 5a3d 72f5 37bd c087 1a3d
000002c0: 698b 25bd 975d 18ba a61c 873d 2dfc 063c
000002d0: a323 7d3d 5789 cb3c c0d2 afbc de58 883d
000002e0: f129 1fbd 38bc 25bc 5b13 763c 2ea5 29bd
000002f0: 2994 9f3d 3757 ee3c b0e3 043d d040 ccbc
00000300: 28ec e73c d853 e8bc 0603 3b3c a35a 693d
00000310: e4e8 f7bc 4531 fb3c c11f b6bc 3e9f 25bd
00000320: bcd5 12be 504e 933d eb49 a0bd c94b 55bd
00000330: 7f57 923d d739 a9bc 0b8e 33bc 68a1 9f3d
00000340: 40f3 853d 0d63 503d eb46 953c f4b2 dabd
00000350: f06d f3bc 196f 1f3d 4044 dcbc 8142 a2bd
00000360: af99 81bc 64a1 a5bc fffa df3c 650a 32bd
00000370: 1680 393d 82d7 213c 1609 a33d 1fce 7cbc
00000380: b86f 72bd 9826 53bd a335 2e3c 003b 82bd
00000390: 586c b0bd 5c1e 113d a3eb 67bc bd8b 09bd
000003a0: 2fb1 a03b c188 c3bd 9391 803c bcb7 df3c
000003b0: 6c18 dbbc c5ce ccbb 923e 563d 098a 0cbd
000003c0: a1dc 643c cb0c 693d 6e01 d4bb a2c5 83bd
000003d0: acb6 a9bd 99d0 343d 93ce 153d 2ef3 b8bc
000003e0: 4527 b43c 38ac b9bc 7321 583d c22e ce3d
000003f0: c21f 8e3d 6139 38bc 2192 093c 0f72 4ebd
0.06351144 0.008410014 -0.0064240796 0.018958768 0.064685434 0.039851274 -0.03513851 -0.04133711
-0.11459266 -0.04366943 0.0075829113 0.017672252 0.031883314 -0.025854722 0.055666316 -0.016332125
0.020287538 0.06300018 0.041683767 -0.101970956 0.025901463 0.06512074 0.025591338 -0.040435743
-0.0026801717 0.0283564 0.083675124 0.043816168 0.021877116 0.034879554 -0.060282316 -0.035574522
0.08076997 0.067148216 0.0047719455 0.07456717 -0.11278599 0.005635255 -0.04564914 0.05317953
0.032335926 0.04451379 0.07419128 -0.04455164 -0.065639414 0.039178055 0.0639656 0.0371808
-0.0067269024 0.015700355 0.08275208 -0.016011298 -0.034294892 0.076446645 0.00090511923 0.06946785
0.040676035 0.05264334 0.0062020533 -0.086416006 0.08628543 0.041425966 0.043224156 0.04238385
0.018917646 -0.051858734 -0.07858004 -0.059495855 0.03218338 0.006524622 0.035852626 0.019526904
-0.04691356 -0.019114638 -0.032312945 0.0550925 0.04803559 0.076732226 0.02763373 0.057616062
0.0888363 -0.040865753 0.018375572 -0.16010828 0.0045186407 -0.07086731 -0.0014672196 0.030869449
-0.03912746 0.08882437 -0.057676066 0.03964344 -0.032550517 -0.0084971115 -0.031379107 -0.03462847
-0.012998344 -0.01656637 -0.0011412884 0.044309586 0.08080098 -0.042408112 -0.055130463 -0.053063087
0.015858315 0.047723398 0.002723134 0.07142815 0.041810952 0.059829462 0.030151295 0.04037259
-0.036245037 0.070794806 0.010870795 -0.028904948 0.026588013 0.067456394 -0.01070744 -0.07438207
-0.038016196 -0.0487813 -0.030075548 0.023738895 -0.015113495 0.020972965 0.02665021 0.069977984
0.0790158 0.0098851435 0.0048839957 -0.0421883 -0.06844307 -0.0013360657 0.01147894 0.08707161
0.0027261924 -0.10835112 -0.060917255 0.06471465 -0.07157296 0.051135562 0.013387352 -0.003952764
0.017383823 -0.031106154 0.06102478 -0.07731019 -0.04082288 -0.0631569 -0.03048754 0.06977315
-0.05834649 0.023661843 -0.049943067 0.00020242642 -0.007810532 0.04181716 -0.06368787 0.018081345
-0.02218405 -0.056147207 0.0017421731 -0.035772525 0.036483135 -0.040085066 0.026929526 -0.007391995
0.053617764 -0.0715164 0.06327895 -0.044401117 0.02519897 0.053239007 -0.04491181 0.037727118
-0.040416155 -0.0005812286 0.06597261 0.008238834 0.061801564 0.024845762 -0.021462798 0.06657575
-0.038858358 -0.010115676 0.015019263 -0.041417293 0.07791931 0.029094322 0.032443702 -0.024933249
0.02831085 -0.028360292 0.011414295 0.056971204 -0.030262418 0.030663142 -0.022231938 -0.04043507
-0.14339346 0.07192671 -0.07826599 -0.052074227 0.07145595 -0.020657463 -0.010959159 0.07794458
0.06540537 0.050875712 0.018222293 -0.10678664 -0.029715508 0.03892431 -0.026888013 -0.07922841
-0.015820352 -0.020218559 0.027341364 -0.043466944 0.045288168 0.009878041 0.079607174 -0.0154300025
-0.059188575 -0.051550478 0.010632905 -0.063589096 -0.08614415 0.035429344 -0.014155301 -0.03358053
0.0049039344 -0.09547568 0.015694415 0.027309291 -0.026745044 -0.006250235 0.052305765 -0.034311328
0.013968618 0.056896966 -0.006469897 -0.0643418 -0.08286795 0.044144247 0.036573958 -0.022576895
0.021991381 -0.022665128 0.052766275 0.10067512 0.06939651 -0.011244149 0.008396656 -0.050401744

arith.constant9 f4 [64, 3, 3, 32]
00000000: e942 1d3b 0a9b 51bd 4a37 83bd ef6d 4bbd
00000010: 0003 b53b 2228 823c 335e 8d3c 9331 443d
00000020: 5ae2 ddbd 0cae f73c 6037 173d 3c2e 7bbc
00000030: a43c 0ebd 0f38 26bd b307 acbc 169c 133d
00000040: 5858 993d 04bb 0e3d 7f63 af3d f4b5 b93d
00000050: 406c dcbd 5da3 d73c fc0b 453d be72 5fbc
00000060: 9484 313d 45ce 99bd ccae f43c 945b 11bd
00000070: d9c0 0dbd 3626 fabd ab27 1a3b f084 e4bc
00000080: c0f5 8abc bc17 b4bc 43c7 a4bd 5827 e4bc
00000090: 3363 a5bd d9d7 8a3a 15ad 9c3c 241f 1e3b
000000a0: 94af 12bd a276 c2bd cae6 313d 155a 803d
000000b0: aa15 74bc 0257 9ebc 77c8 a4bc 04a6 57bd
000000c0: 420d 01bd 4354 a9bd 2a04 753c ff56 25bd
000000d0: 4c45 59bd 9a09 373d 6166 a1bd 1ec9 2abd
000000e0: eaed 5abd 31c1 92bd 0647 50bd 85c8 f4bd
000000f0: 168a 44bc f7ae fc3b 61e9 333d 8c30 893c
00000100: 6625 123b 99c8 94bd abaf 8cbd dabf 74bd
00000110: 30da 89bd 5530 7bbd f803 143d c0d1 d6bd
00000120: 673f 5d3d 4d1e 9a3d 0c71 eb3c 38e5 acbc
00000130: fe55 99bc 226d be3c 5a5b dbbc 0c31 e73c
00000140: 242a 123d b2cb c1bd ebcf 9f3d c33a 8bbc
00000150: de65 99bd 8674 80bd cbb1 5a3d be49 76bd
00000160: 6bde 0f3d 6ffe 023d 3233 3c3d 6acf 53bd
00000170: 3add 84bd ff26 8fbd 01be a6bb c133 07bd
00000180: d626 0a3d 7a8f 7fbd c8de fc3c 35c4 bc3c
00000190: 6000 2e3b 3b08 53bd 47bd a3bd 830e 00bd
000001a0: 13e2 00be 1b31 a0bd ee7a 9c3d faad fabc
000001b0: 62ac 0e3d 3965 a43d 2fd2 9c3d db3a 0cbd
000001c0: 1403 3abd d119 03be 8a53 e83c 3836 37bd
000001d0: bd62 383c 1b38 e03c b330 98bd 4637 dcbd
000001e0: 4fc7 203d 4958 e53c 289c 763c 806c 89bb
000001f0: b05c 26bd 65a9 b6bd 21cc 14bd 51db 0cbd
00000200: b950 893c 7fe3 3d3c 0b57 a0bd 1a63 a33d
00000210: 569c 50bd 439e 59bd 1c78 7cbd 36bb 95bd
00000220: 97ce e8bc 7742 fbbb 6826 a6bd c251 793b
00000230: 2502 d8bd 2f86 e139 8a2a c8bd 12af b2bb
00000240: 0910 efbc 3c27 febd ba23 b8bc af27 99bd
00000250: 84fb a53b bdcb 943d e6ac 1cbd 82a1 16bc
00000260: 878f 92bd 7af4 173d 0d50 5ebd 339c 28bd
00000270: ab98 36bd a84c 12bd 32d4 16bc 3bf9 fd3b
00000280: dc0e 50bd 8835 bfbd 5797 a2bd 9f27 d0bd
00000290: 5046 efbb 5fce 87bd 8d58 b3bd 9671 09be
000002a0: be5c 94bc f9c3 803c 961e 96bd b76c 10bd
000002b0: 0a2e 8fbd c3a7 23bd 968d a2bd 983b e4bd
000002c0: cf02 a5bc c91c e7bc 1a20 133d 66b3 3c3d
000002d0: 4336 063d b9c0 a93d 3ef0 55bd 8ca6 84bc
000002e0: cdc0 5d3d 08a5 a8ba e3f7 953d 52cd c2bd
000002f0: a6e1 2e3d 2351 45bc 5d17 303d 9525 bbbd
00000300: 511a 8bbd d168 cbbd dafc 253d 04c3 1abc
00000310: db2e 973d 86e2 01be afeb c3bd 201e 8fbd
00000320: 8bc8 f0bd b45c fb3c 6db5 6cbd ae2d e33b
00000330: 5b3e 57bd 75d4 acbd fc93 383c 4867 59bd
00000340: acb2 ef3c 85a8 02be 38ee c23b fad4 6a3d
00000350: c210 c5bb 9419 b53c 41da 8c3c 0ee9 91bd
00000360: 3eb8 9fbd 068e ecbd 304a 8d3b 00cf 10bd
00000370: ec6d 8cbc e39f 3bbd 4cd3 913d b2c7 033d
00000380: dacb 92bd 8181 35bc f9a5 9bbc ea78 b2bb
00000390: ea6d 1d3d 4126 1bbd 64a6 37bc f6e5 b1bd
000003a0: c3dd 33bd 30cc a1bb d0f2 9d3b c231 8d3c
000003b0: 5105 9fbd b9ec fb3c 555e 4cbd 431e 85ba
000003c0: d064 1dbd 662b 3a3d e971 ad3a 45cd b83c
000003d0: 1479 103d d092 a93b 0426 79bd 58a1 5c3d
000003e0: 1fa5 2c3d 3add d1bd a095 a2bd 46d5 043d
000003f0: 80ea d5bb bfb0 b4bd d5a8 98bd d669 13bd
0.002399618 -0.051173247 -0.0640703 -0.049665388 0.0055240393 0.015888277 0.017256832 0.04789884
-0.10834189 0.03023436 0.036918044 -0.015330847 -0.0347258 -0.040580805 -0.020999765 0.036037527
0.07487553 0.03484632 0.08563899 0.09067908 -0.107628345 0.026323015 0.048107132 -0.0136381965
0.043339327 -0.07510046 0.029868506 -0.035487726 -0.034607742 -0.122143194 0.002352218 -0.02789542
-0.016962886 -0.021983974 -0.08045819 -0.027850792 -0.080755614 0.0010592892 0.0191255 0.0024127448
-0.035811976 -0.09495284 0.04343299 0.06267182 -0.014897743 -0.019328598 -0.02011512 -0.05264856
-0.031506784 -0.08268025 0.014954606 -0.04036617 -0.053044602 0.04468689 -0.07880855 -0.041695707
-0.05344955 -0.071657546 -0.050848983 -0.119523086 -0.011995813 0.007711287 0.04392374 0.016746782
0.0022300123 -0.072648235 -0.068694435 -0.059753276 -0.06731069 -0.06132539 0.036136597 -0.104892254
0.054015543 0.07525311 0.028740428 -0.021105394 -0.018717762 0.023245398 -0.026776958 0.02822163
0.03568472 -0.0946268 0.07803329 -0.016995793 -0.07490133 -0.06272225 0.053392213 -0.06012892
0.035124224 0.031980928 0.04594726 -0.051711477 -0.06487508 -0.0698986 -0.005088568 -0.03300834
0.033728443 -0.06239269 0.03086795 0.023042778 0.0026550516 -0.05152152 -0.07995086 -0.03126384
-0.1258624 -0.07821866 0.076406345 -0.030600537 0.034832366 0.08027119 0.07657277 -0.034235816
-0.04541309 -0.12802817 0.028360147 -0.04472944 0.01125401 0.027370503 -0.07431164 -0.1075273
0.039252575 0.0279962 0.015051879 -0.0041938424 -0.040615737 -0.08919028 -0.036327485 -0.034388844
0.016762124 0.011589884 -0.07829102 0.079778865 -0.050930344 -0.053129446 -0.061637983 -0.07311098
-0.028418822 -0.0076678353 -0.08112794 0.0038043116 -0.10547284 0.0004301532 -0.09773739 -0.005452999
-0.02918245 -0.12409827 -0.022477973 -0.07478272 0.0050653834 0.072654225 -0.038250826 -0.00919378
-0.07156282 0.037098385 -0.05427556 -0.04116459 -0.04457919 -0.035717636 -0.009205865 0.007750658
-0.05079542 -0.09336382 -0.07939022 -0.10163807 -0.007302083 -0.06631159 -0.08757124 -0.13422236
-0.01811063 0.015718447 -0.073300526 -0.03525993 -0.06991203 -0.039954912 -0.079371616 -0.11144179
-0.02014294 -0.028211968 0.035919286 0.046069525 0.03276659 0.08288712 -0.052231066 -0.016192697
0.054138947 -0.0012866566 0.07322671 -0.09511818 0.042695664 -0.01204327 0.04299103 -0.091380276
-0.06792129 -0.099321015 0.04052434 -0.009445909 0.07381984 -0.12684068 -0.095664375 -0.06988168
-0.117570005 0.030683853 -0.05779021 0.0069329357 -0.0525497 -0.084389605 0.011265751 -0.053077012
0.029260002 -0.12759598 0.005948808 0.057332017 -0.0060139606 0.022106923 0.017193915 -0.0712453
-0.07798813 -0.11550526 0.0043118224 -0.03535366 -0.017142259 -0.045806777 0.0712038 0.032172866
-0.07167788 -0.011078239 -0.01900004 -0.005446543 0.0384349 -0.03787828 -0.011209104 -0.0868644
-0.04391266 -0.004937671 0.0048202053 0.01723564 -0.07764686 0.030752527 -0.04989465 -0.0010156113
-0.03842622 0.045451544 0.00132328 0.022558818 0.03527172 0.005174972 -0.06082727 0.053864807
0.04214966 -0.10247274 -0.07938695 0.032429956 -0.0065281987 -0.08822774 -0.07454077 -0.035989605

arith.constant10 f4 [8, 64]
00000000: abdf 07be 3a1a 8dbd f030 8bbd 9a7c 103e
00000010: 2ce6 943e c042 983c ad74 313e 783d dabc
00000020: f6bd 63bd 18f8 2cbd 2aca 1b3e f440 6e3d
00000030: d669 bd3d 8c79 8b3e f14e 2e3e 385e 753e
00000040: d7af 5b3e 197c 08be 6e4e 39be 70a6 2e3e
00000050: 125d 0f3e cf87 4dbe 4d17 433e 41f9 4f3e
00000060: 3c88 2cbd b4d1 5b3d 1d0e 643e f4b5 18be
00000070: 0d53 7e3e ba43 7c3e df5d 87be 6457 8cbe
00000080: 3de8 5c3c 05d8 9dbd f732 4f3e fa8e 10be
00000090: 5f59 92be 29f5 7cbe 977e 093d c421 dabd
000000a0: ebdc a4bd 41ff c1bd 646e 5f3e c52a ec3d
000000b0: bb95 fdbc 79b2 9bbc feb7 4b3e 9c36 d73d
000000c0: 021e fa3d 844c 02be fa85 863e 5237 313e
000000d0: bedf 2cbe 0fdd 403e 18de af3d 307d f9bc
000000e0: 1a32 8b3c 2355 64be c197 a83d e766 653e
000000f0: 39a3 4a3e a14e 6c3e 43a3 5abe da46 983d
00000100: 066f 62be b8c8 583e 8e19 c43d 6eba a53d
00000110: 73e1 313e cf3c 39be 7065 80be 74b9 babd
00000120: 7402 fa3d 847d a33d 63ba 363d c759 9abd
00000130: bb0d 00be 72b6 e93d 78e4 e0bd d111 e4bd
00000140: bd7e 6dbe 4721 203e 4239 153e d79f d13d
00000150: edad 95be f77a 5f3e 6835 6c3e a367 203d
00000160: 9d1b 9fbe 17b9 6fbe 232d 3f3d f23d 983e
00000170: b15b 4d3e b84c 8cbe 5504 11be 5d28 4a3e
00000180: fdff 9cbe c1ab 39be b551 62be b542 843e
00000190: fe06 19be 9466 60be 04b9 1e3e 07b4 193d
000001a0: 0ccb 023d 1616 14be 3099 3abe 6281 ebbc
000001b0: de64 21be a628 d3bd 556b 133e 5609 a73d
000001c0: 1b9f 883e 7c5b 14be 2abf 633e 1fdc 83bd
000001d0: 14ba 1c3d 592f 37be d0e6 15be d477 31be
000001e0: a3b1 d9bd 721e 733e c441 843c a1e8 bf3d
000001f0: 1882 1ebe 951e 433e 811e 573e d86f 783d
00000200: 7f5f 933c f7d3 f5bd cbe1 7a3e 5aae 803e
00000210: eff6 00be c932 473e 40a0 1c3e 0b3d 163c
00000220: 344d 693e 999e 92bd 1a87 ed3d e0a9 d83c
00000230: 0c71 6f3e 1653 023c 1240 abbe 695d 0b3e
00000240: 20f7 2d3e 7a99 d3bc c1f1 3b3e dfc8 94bd
00000250: 5e98 e5bc 0e79 1c3b 0a9a 2c3e 4a1e 13be
00000260: 1f67 713d 45ea 56be f590 89be 5b41 d03d
00000270: 55c0 17be c03a 433d 1d61 90bd c921 75be
00000280: 37a0 393c 8d89 55be 4346 2a3e 9cd9 5fbe
00000290: 250c 993d c79d 89be 45bf f03d 2fbe 20bd
000002a0: 0e4f c3bd 5b84 7e3d ec22 92bd 8935 723e
000002b0: 6c03 8fbd 4b6e 2b3e ef1e 013e 8a9e dc3c
000002c0: 5899 453e fa62 403e e513 793e bbf0 22be
000002d0: 7582 6cbd cc05 863e 68a4 123d b671 833e
000002e0: 954e 8e3d 48af 963d 8015 3f3e 20a2 04be
000002f0: a631 fdbd 4af7 42be 08eb c03d 0d01 a3bb
00000300: 8c79 833e e95b 6dbe 5690 c1bd 9970 80bd
00000310: a342 4d3e aa59 e93b c6b4 fe3d 7fa7 63be
00000320: 2b20 ecbd d337 913e 1d22 e63d f56c 6ebe
00000330: e8cd bcbd c3c3 86be 98f3 8ebd 0cb3 a3bd
00000340: c799 823e ecd2 1fbd b311 1dbd 485f 8dbe
00000350: f2a8 c3bd 7e5d 85be 58e1 4b3e 3509 06be
00000360: ded9 703e d89d 2bbe 1cf0 ab3d d074 1d3e
00000370: a5f6 f4bd 93a5 373e 013e 583e 5b22 7fbe
00000380: 442f 043d c04f 84bd 0680 3c3e f13a 10be
00000390: f481 31be eb0a 2bbb 69b0 c2be 6e14 263e
000003a0: 130b 43be 6233 22be f08b 223d dd7a d5bd
000003b0: 74c9 f3bc 2fc4 803d 5adf 8d3c 6c1b 5d3e
000003c0: 6975 11be 3766 913c 4619 883d bc18 a13e
000003d0: dac8 323e e66e 65be a49c b73d 03eb 25be
000003e0: 3d33 97be c167 723d 72fe cb3d 0864 e0bd
000003f0: 3782 cd3d 4251 c63d 587f aa3e 18e9 433d
-0.13268916 -0.06889768 -0.067964435 0.14110032 0.29081857 0.018586516 0.17329665 -0.026640639
-0.055601083 -0.04222879 0.15213838 0.058167413 0.09248702 0.2724117 0.17022301 0.23961723
0.21453796 -0.1332859 -0.18096325 0.17055678 0.14000347 -0.20071338 0.19051857 0.20309927
-0.04212211 0.053666785 0.22271009 -0.1491316 0.24836369 0.2463521 -0.26438805 -0.27410424
0.013483104 -0.07707218 0.20234285 -0.14117041 -0.2858381 -0.24702896 0.03356799 -0.106509715
-0.08049949 -0.09472514 0.21819454 0.11531595 -0.030955186 -0.019006 0.19894406 0.10508463
0.12212755 -0.12724501 0.2627409 0.1730626 -0.16882226 0.18834327 0.08587283 -0.030455202
0.016991664 -0.22298102 0.0823207 0.22402535 0.19788827 0.2307687 -0.21351342 0.07435389
-0.22112665 0.21170318 0.09575187 0.08092199 0.17371158 -0.18089603 -0.2507739 -0.091174036
0.12207499 0.079829246 0.044611346 -0.07536655 -0.12505238 0.11411752 -0.10981077 -0.11136211
-0.23192878 0.15637694 0.14572623 0.10235565 -0.29234257 0.21824251 0.23067248 0.039161336
-0.31075755 -0.2341045 0.046673905 0.2973476 0.20054509 -0.27402282 -0.14161809 0.1974196
-0.30664054 -0.18131925 -0.22101481 0.25832143 -0.14944074 -0.2191413 0.15500265 0.037525203
0.03193192 -0.1446155 -0.18222499 -0.028748218 -0.15761134 -0.103104874 0.14396413 0.081560776
0.26683888 -0.14488024 0.22240892 -0.06438469 0.038263395 -0.17889155 -0.14638829 -0.17330867
-0.10629585 0.23742083 0.01614464 0.09370542 -0.15479314 0.19054635 0.2100773 0.060653538
0.017989872 -0.1200332 0.24500196 0.2513302 -0.12594198 0.19452967 0.15295506 0.009169827
0.22783357 -0.07159156 0.11598034 0.02644819 0.23382968 0.00795438 -0.3344732 0.13609852
0.16988802 -0.02583002 0.1835394 -0.072648756 -0.028026756 0.0023875865 0.16855636 -0.14367023
0.058936235 -0.20987804 -0.26868406 0.101687156 -0.14819463 0.04766345 -0.07049773 -0.2393867
0.011329702 -0.20853253 0.16628365 -0.21860355 0.074730195 -0.26878187 0.11755232 -0.039243873
-0.09536563 0.062137943 -0.07135567 0.23653235 -0.069830745 0.16741292 0.12609456 0.026931066
0.19296777 0.18787757 0.24323995 -0.15912144 -0.0577416 0.26176298 0.03580132 0.25672692
0.06948582 0.07357651 0.18660545 -0.12952471 -0.12362985 -0.19039646 0.09419829 -0.0049744905
0.2567867 -0.23179592 -0.09451358 -0.06271476 0.20044951 0.0071212845 0.124368235 -0.22231863
-0.11529573 0.28362903 0.11236975 -0.23283751 -0.09218961 -0.2632123 -0.069800556 -0.07993135
0.25507948 -0.03901951 -0.038346957 -0.27611756 -0.09553708 -0.2604789 0.1991018 -0.1308945
0.2352061 -0.16759431 0.083954066 0.15376592 -0.11961106 0.17934255 0.21117403 -0.2491545
0.03227164 -0.064605236 0.18408212 -0.14084984 -0.1733473 -0.0026099037 -0.38025215 0.16218731
-0.19047193 -0.15839913 0.039684236 -0.10423825 -0.029759146 0.06287419 0.017318416 0.21592492
-0.14204945 0.017748935 0.066454455 0.31464183 0.17459431 -0.22405586 0.08965424 -0.16202931
-0.2953128 0.05918098 0.09960641 -0.109565794 0.10034602 0.096834674 0.3330028 0.047829717
