scripts/v2/notebooks/models/compressed/LCNN.tflite (tflite, 693004 bytes, 16 tensors)

arith.constant f4 [64]
00000000: 25e5 173c c46c ed3c f2e9 5ebc d49b 7abc
00000010: c62a 1dbd 22c5 07bd 610d bfbb 3f5f d0bc
00000020: e2e1 0fbc facd 703d 6e2a 67bc 27ea 0b3d
00000030: aea2 0cbd 0095 11bd fee8 0fbd 574d 6dbc
00000040: 98e9 a8bc c000 fd3b 3fb7 3ebd 6dee 05bd
00000050: c1e9 48bd a9e4 0bbd 50a0 793c 9d7c a1bb
00000060: 6a5f 5abc 2928 debc 837c 90bc 31ea 0ebc
00000070: 5cdb c4bc d874 1abd aaaf 3dbd ec48 77bc
00000080: af53 ea3b be84 dcbc 1c22 06bd 5c9d 75bc
00000090: 565b a63d 38c6 21bd 1899 9dbc b216 eebc
000000a0: 1ffb d9bc 6543 94bc a560 05bd 9f3d a0bc
000000b0: 8fc6 0e3c 24ae 70bc f025 db3c 24c2 893c
000000c0: 87cc d4bc 4565 58bc c586 53bc 20dd 10bd
000000d0: 260c eebb c5ee b8bc bf07 19bd 976a 06bc
000000e0: 6a22 90bc 8808 163d 5b92 6f3d 6477 f9bc
000000f0: 7183 60bd 9c12 18bd c3bb cdbc 5055 ab3c
0.009270941 0.028982528 -0.013605582 -0.015295941 -0.03837087 -0.033146985 -0.0058304523 -0.025436042
-0.008781882 0.058790185 -0.014109237 0.034158852 -0.03433483 -0.035542488 -0.035134308 -0.014483771
-0.020619199 0.0077210367 -0.046561476 -0.032698084 -0.04905105 -0.034153614 0.015235975 -0.004928185
-0.013328413 -0.02711876 -0.017637497 -0.008722828 -0.02403038 -0.037709087 -0.046310104 -0.0150930695
0.007151089 -0.026918765 -0.032747373 -0.014991131 0.0812289 -0.039495677 -0.01923804 -0.029063556
-0.026609002 -0.018098542 -0.03256287 -0.019560633 0.008714332 -0.014689956 0.026751488 0.016816206
-0.025976432 -0.013207738 -0.0129105495 -0.03536713 -0.007264632 -0.022574792 -0.037360903 -0.008204124
-0.017594535 0.03662923 0.058489185 -0.030452438 -0.054812852 -0.037127122 -0.025113946 0.020914704

arith.constant1 f4 [64]
00000000: 9ebb 69bd d620 1bbd 6894 e7bc 99c3 95bb
00000010: 0576 c63b 0f77 88bd 2346 103c 2aca c9bd
00000020: 20fd 28bd 3c03 8bbc 6010 5abc 563b 13bd
00000030: fd4b e0bc 1f39 003d 7367 823d ca1e 61bc
00000040: a279 a5bc f740 5cbd b2fb 16bd ed6e dbbb
00000050: 1091 d23c 8cbd c1bb eadb 73bc dbde 36bd
00000060: 3095 c8bc a1d9 1abd 7124 e0bc 0d4c 2abc
00000070: 30d5 93bd 3159 24bb 8c68 c0bc 91df 123c
00000080: 7859 b1bc 60d0 4ebc e175 c6bc fee2 283d
00000090: e7e4 f2bc 0c89 34bc 04ae e63c fd48 fdbc
000000a0: 4c7b 313d d8a8 0bbc d9d4 093d 62c5 f3bc
000000b0: e327 85bc b830 b9bc e6a0 f83c 9b47 093b
000000c0: 906e 9bbd 23ba 8b3b 1dfb 0abc a832 82bd
000000d0: f972 96bc ca6a 42bc 3f33 51bc bd6d 85bd
000000e0: b86e 533c dc7f c9bc bc87 e93c 7e2c 573c
000000f0: 5cb8 1f3c ffe1 9e3c 129b 98bc 57ce 30bd
-0.05706369 -0.03787311 -0.028269008 -0.004570436 0.0060565495 -0.066633336 0.008805784 -0.09853013
-0.041257024 -0.016969316 -0.013309568 -0.03594526 -0.027379984 0.031304475 0.063673876 -0.013740251
-0.0201996 -0.053772893 -0.03686113 -0.006696573 0.025703937 -0.0059124883 -0.014883975 -0.044646125
-0.0244852 -0.037805203 -0.027361127 -0.0103941085 -0.07218397 -0.0025077576 -0.023487352 0.008964435
-0.021649107 -0.012622923 -0.02422613 0.0412321 -0.029650165 -0.011019003 0.028159149 -0.030918593
0.043330476 -0.008524142 0.033650253 -0.029757205 -0.016254371 -0.022606239 0.03035016 0.0020947221
-0.075894475 0.0042641326 -0.008482722 -0.06357318 -0.01836537 -0.011866281 -0.012768566 -0.065150715
0.012904815 -0.0245971 0.028507106 0.013133166 0.009748545 0.019394873 -0.01862863 -0.04316553

arith.constant2 f4 [64]
00000000: 6340 ffbc 5a89 9bbc 1488 8bbc f9bb 81bd
00000010: ef73 d9bc 5c34 e9bd aa11 8dbc 8f82 ae3c
00000020: 4d9f c8bc 496c 36bd 8e80 e3bc 2c32 853d
00000030: 8383 17bc 014e afbc d951 1b3b 8f44 1fbc
00000040: 89e6 9ebc e279 abbc a5ff 113b caad 22bd
00000050: 0d0d b9bc b032 d8bd 9658 e4bb c833 883d
00000060: 7f7c 463c e3d5 52bd 9002 b8bc d401 aebd
00000070: ac65 4ebc b97a 6dbc a252 9a3c 9c18 bfbc
00000080: 46df 83bd e6cd 72bd 733d 82bc 67d4 f7bc
00000090: d699 5f3d 2a56 2ebd 56f7 4cbd 6693 c939
000000a0: bccb 97bc 36b7 83bc 23bb b33d 3fe7 f2bc
000000b0: e297 2d3d 1858 043d d84e e1bc 8094 973d
000000c0: 77de 583c fd67 cfbc 113a 01bc a59f f03b
000000d0: f9ad 0abd 3d4c 163a f046 dabc 816a 3ebc
000000e0: 60f9 18bd 9dfd adbc 3656 833d 365e e4bc
000000f0: 5439 10bd 5e17 e6bc 1c84 a0b9 1764 b83d
-0.031158632 -0.018986393 -0.01703266 -0.06334681 -0.02654454 -0.1138694 -0.017220337 0.02130249
-0.024490023 -0.044536863 -0.02777126 0.0650371 -0.009247663 -0.0213995 0.0023699908 -0.0097209355
-0.019397037 -0.020932142 0.002227762 -0.03971652 -0.02258923 -0.10556543 -0.006968568 0.066505015
0.012114643 -0.05147351 -0.02246216 -0.084964424 -0.012597483 -0.014494591 0.01883823 -0.023327164
-0.064390704 -0.05927839 -0.015898442 -0.030252649 0.05459007 -0.04256264 -0.050040565 0.00038447528
-0.018529765 -0.016078573 0.08775928 -0.029651282 0.042381175 0.032310575 -0.027503416 0.07401371
0.0132366335 -0.02531814 -0.007887379 0.00734325 -0.03385732 0.0005733406 -0.026645154 -0.011622072
-0.037347198 -0.021239096 0.06412928 -0.027876955 -0.035210922 -0.028087314 -0.00030616007 0.090034656

arith.constant3 f4 [64]
00000000: 3505 67bc 787e 113d 6043 233d 2c5a 91bd
00000010: ebbc 64bd abfc e5bc 87e2 c7bc 53c0 823d
00000020: 72ae 89bc 36db 51be 5022 b7bc 66b1 c23d
00000030: 71f3 083c 5193 f7bb 589a 23bd 1545 88bb
00000040: 1914 fbbc 200f 2cbd 018e 96bc c903 03bd
00000050: 7cba 20bc 559c febb 32c0 d0bc cf07 183d
00000060: 92e5 b53c c365 4bbc e421 1c3b 9929 f4bc
00000070: 287c a4bc d660 1a3d 1bbf e1bc a0b5 06bd
00000080: 2167 09bd e938 e3bc ea7c 22bc 03ed 3bbd
00000090: 771e 3bbd 2223 f7bc d8b8 4cbc 0295 e4bb
000000a0: 98b8 bbbc c69e ccbc 06ff bbbc 71ce 3fbd
000000b0: 51b4 17bd b397 43bc c4bc 0dbd f731 563c
000000c0: ff44 69bc 6c73 0fbc 5885 c5bc a1fa 62bc
000000d0: ce61 4b3c 05cc 14bd db71 aabb 96d4 37bd
000000e0: 1568 99bc 056f fbbb e77c 14bc 0769 5fbc
000000f0: c59e 333d 2dcd 7d3b a950 35bd f8d6 1bbc
-0.014100363 0.035521 0.039859176 -0.07097277 -0.05584423 -0.028074583 -0.024400009 0.06384339
-0.016806815 -0.20493779 -0.022355229 0.09506492 0.008358822 -0.0075554033 -0.039942116 -0.004158626
-0.030649232 -0.04200661 -0.01837826 -0.03198603 -0.009810086 -0.007770101 -0.02548227 0.03711682
0.022204194 -0.012414399 0.0023823911 -0.029804992 -0.020078734 0.037690006 -0.027556947 -0.032888055
-0.033545617 -0.027737098 -0.009917477 -0.04588033 -0.04568335 -0.03016812 -0.012495242 -0.006975771
-0.02291517 -0.024978053 -0.022948753 -0.046827737 -0.037037198 -0.011938023 -0.03460385 0.013073436
-0.014237641 -0.008755546 -0.024111435 -0.0138537 0.012413455 -0.03632738 -0.005201561 -0.044880472
-0.018726388 -0.0076731467 -0.009062982 -0.01363588 0.043852586 0.003872703 -0.044266377 -0.009511702

arith.constant4 f4 [64]
00000000: da21 083c ed39 b4bc c4b5 a83c c62c 09bd
00000010: 1a83 80bd 6e46 b3bc 667a 82bc f607 2bbd
00000020: 133d 9a3c 3d3c ebbb 5162 1cbd 11c7 64bc
00000030: e145 443d 7117 32bd 90b1 183d 7408 8d3c
00000040: 89be d1bc 0e4d 19bd 8c2f 9cbc a23c 89bd
00000050: ab76 c3bc c6b5 af3d b626 8d3b ba3c c7bd
00000060: 7d51 aabb eb11 a4bc b3b2 b5bc c054 9c3b
00000070: 5a16 813d 00b0 c3bd 6275 28bc 0ea5 abbc
00000080: 4f72 acbd 54ad 1dbd 67dc 5ebc 971c 393c
00000090: 60c7 acbc b166 d5bc 009e 5ebd 2635 c7bc
000000a0: 4fd9 82bc fda5 49bd 3980 363d f6c2 59bd
000000b0: 54bc 88bb 854b a33c 8ef5 4e3d 5784 24bd
000000c0: c568 ffbb 566a 913c 2e62 1abe 0405 03bd
000000d0: 8e5a 66bd fcc8 6f3d ee42 863d f89d 36bd
000000e0: e036 8cbc f327 4cbc 102b debd dc6e 2e3d
000000f0: e9d9 7aba 5752 ce3c f0cc cb3d 8fe2 febc
0.008308852 -0.022000277 0.020594485 -0.033489965 -0.06275006 -0.02188417 -0.015927505 -0.04175564
0.01882795 -0.007178812 -0.0381797 -0.013963477 0.047918204 -0.043479387 0.03727871 0.017215945
-0.02560355 -0.037427 -0.01906564 -0.06701018 -0.023860296 0.085795924 0.004307593 -0.097283795
-0.0051977024 -0.020028075 -0.022179937 0.004770845 0.06303091 -0.09555054 -0.0102818925 -0.020952728
-0.0842024 -0.038495377 -0.013602353 0.01129832 -0.021091163 -0.026049944 -0.0543499 -0.024317335
-0.015972761 -0.049230564 0.044555876 -0.053164445 -0.004172841 0.019933471 0.050527148 -0.04016527
-0.007794472 0.0177509 -0.15076515 -0.031987205 -0.056238703 0.058541283 0.065557346 -0.044584244
-0.01711601 -0.0124606965 -0.10848057 0.042586192 -0.00095692143 0.025185747 0.09951198 -0.03111389

arith.constant5 f4 [64, 3, 3, 64]
00000000: 239c 613c fe77 b23c ae29 8e3c cd86 2f3d
00000010: 5f5a 4f3d 98e5 92bd 3fa8 1c3c abdb 19be
00000020: 3cd5 10bd 5f8d a4b9 45cc 9d3c 0c98 0bbd
00000030: c647 60bd 8801 2dbd a84e fd3d ee99 c43b
00000040: cfc7 7c3d ca86 3e3d 955c 45bd 785b b8bb
00000050: 2cb9 c9ba 2ade 433c d56c 833d 203f 8d3c
00000060: 61f2 cabb c2ce 6b3d 8e51 d7bd c593 41bd
00000070: 39f6 f7bd aebd fbba d69d da3b f68d 26bc
00000080: 591c a03d 7a2f 6ebd 11a9 c43c ae3d ba3d
00000090: cae4 70bd 6617 f4bc c6ea 57bd e1a6 92bd
000000a0: 9043 eb3d 1acb 76bd eaba 773d 6f5a 963d
000000b0: 078b 25bd ce5b b5ba 0b13 c8bc 450f e23d
000000c0: 67f5 73bd 4624 d83c 9dce c03c 3b3c dcba
000000d0: 0bd6 b23d 2805 2b3d 9d3f 623c 3a3e b6bc
000000e0: 8b74 913d 4d6f 093d 5423 033d 29dd 94bc
000000f0: ebcf 0d3d 8c98 913d bbd7 053d 6223 7e3d
00000100: b3b4 9e3d ed76 7ebd 3619 d1bc eec5 143d
00000110: cf16 25bd b159 5bbd 3670 e7bc 939b 1fbe
00000120: d0be dd3c 2ff5 263d 12de d1bc f069 943d
00000130: d915 aabc e1f3 58bb 4a87 423c b0cb e3bc
00000140: 65cf 3b3b 4d37 4d3d 4bd9 82bd 44c5 eb3c
00000150: 9676 5bbd 2b38 69bd 9e59 ab39 b905 7d3d
00000160: 5651 3bbd 9526 1e3d 1def 203c 4f30 ee3c
00000170: d99f a6bd 33da 723d 6ba6 e33c 2c2c 39bc
00000180: 3b40 203d a6ac 503d b421 023d 941d 18bd
00000190: bf12 6a3d 9b4d 84bd 74de 213d 866f c4bc
000001a0: 5404 183d 9830 303d 40da 673c de4d a33d
000001b0: d3b6 203d 9ce5 f0bc 02dc 2e3d 16b0 95bc
000001c0: fa9f 91bc 9281 d6bc 5555 fc3b eee3 a5bb
000001d0: 3118 323d 8430 94bd 992c 09bd b131 873d
000001e0: 1448 893c 6f23 0d3d 2e8f 623d ba7b c3ba
000001f0: 09e0 e23b 2cfb acbc cf48 283c b239 92bd
00000200: 8dbf 263d 9ee4 03bc e9a0 0abd fd5e 9cbc
00000210: 2fc3 813d 32a4 003e d2df 7ebd 57af d5bb
00000220: 212d 87bd 7b90 183d 9945 84bd aa22 46bd
00000230: 242d bbbc 808a 6abd 1696 c43c 3086 70bd
00000240: 6400 94bd 702e 883b a6cb 5a3c ade3 5b3d
00000250: 2755 77bd b63c e33b 2e42 b0bc 2af1 af3d
00000260: aa7f ad3d eef6 21bc 73f7 bbbd 9d52 583b
00000270: 2cfc 25bd 31e2 35bd 448e 39bd 982b 89bc
00000280: 91a4 01bd 6842 533c bad6 f4ba 215a 88bd
00000290: ae40 e2bc de2c d43c 98ac 8f3c 231e fe3b
000002a0: 4777 073e 3ced 74bd bb3f e23c c308 62bd
000002b0: 96ee c0bc ac58 86bd 0fd6 3c3c ff14 703c
000002c0: 8a5c 84bc affe 7f3d c1c7 a6bc b174 c43c
000002d0: 17b7 56bd 78eb 453d 130a 8fbd f431 843d
000002e0: ba53 e7bc f0dd 463d 4ab3 d8bd 70e8 19bc
000002f0: 1ae6 93bd eff3 9bbd dc04 403d 0062 33bd
00000300: 95f9 c0bd f685 96ba 6078 933c 0a84 dfbc
00000310: 7dac 01bd 39d6 7a3d 6b7a fabd 2c15 9ebd
00000320: 743c d23c 5ca9 d33c 0fab 62bc 3328 f43c
00000330: e5f0 213d 99ab 693b 27ec c43d fdc6 023d
00000340: a342 13bd 51a8 fc3c c40c 59bd e408 ad3b
00000350: a7f6 103d adff 2f3d 44eb 933c d478 a03c
00000360: 7096 683c 11e9 733d ec2c bfbd c997 8ebc
00000370: 5cd5 18bd 65de 9cbd db27 4a3d 9770 92bc
00000380: 4565 103d c549 0fbd 3b32 bbbd e4d6 853b
00000390: 7d44 4f3c a819 2d3d 1efe 02bd 2021 aebc
000003a0: 930a 46bd 1b8b 60bd 65e1 a2bd bf20 6b3d
000003b0: c0a7 60bc f722 fd3c 3a8f 073c 2f56 b53d
000003c0: 9c06 813c 2fc6 bf3d 70b8 08bd 76d2 5cbd
000003d0: 3caf f83d 0d45 b43c 466c 12bd f0ef a23d
000003e0: b343 ba3c acda a2bc b24e 68bd fb15 533d
000003f0: a9c2 a3bc 59a1 be3b 2095 553c 61c9 9cbd
0.013770136 0.021785732 0.017353859 0.042853165 0.050623294 -0.07172698 0.009561597 -0.15025203
-0.035359606 -0.00031385847 0.019262442 -0.03408055 -0.05475595 -0.04223779 0.12368518 0.005999795
0.06171399 0.046515264 -0.048183996 -0.0056261383 -0.0015390269 0.0119548235 0.064172424 0.017242014
-0.0061934446 0.057570226 -0.10513602 -0.047260065 -0.1210751 -0.0019206309 0.0066716475 -0.010165682
0.07817907 -0.058150746 0.024006398 0.09093796 -0.05881194 -0.029796313 -0.05271413 -0.07160736
0.11487496 -0.060252286 0.06048099 0.073414676 -0.04041579 -0.0013836564 -0.024423143 0.11038069
-0.059560206 0.026384484 0.02353602 -0.0016802618 0.08732232 0.041752964 0.013809112 -0.022246469
0.07102307 0.03355341 0.032016113 -0.018171864 0.034622114 0.07109174 0.03267644 0.062045462
0.077493094 -0.062125135 -0.025524717 0.036321573 -0.040304955 -0.053552333 -0.028251749 -0.1558669
0.027068526 0.04076117 -0.025618587 0.072467685 -0.02076237 -0.0033104348 0.011873076 -0.027807087
0.0028657552 0.050101567 -0.063891016 0.028780587 -0.05357989 -0.05693833 0.00032682432 0.061773036
-0.045731865 0.038611013 0.009822634 0.02907577 -0.08135957 0.059290122 0.027789315 -0.011302035
0.039123755 0.0509459 0.031770423 -0.037137583 0.057146784 -0.064601146 0.03951879 -0.02397896
0.037113503 0.043015093 0.014151156 0.07973836 0.039236855 -0.029406361 0.042690285 -0.01827244
-0.017776478 -0.02618483 0.007700602 -0.0050625717 0.043480102 -0.07235816 -0.033489797 0.06601275
0.016758002 0.03445762 0.055312328 -0.0014914193 0.0069236797 -0.021115862 0.010271265 -0.07139911
0.04071002 -0.008050112 -0.033844862 -0.019088263 0.063360564 0.12562636 -0.06222517 -0.0065211463
-0.066004045 0.037247162 -0.06458587 -0.048372902 -0.022848673 -0.05726099 0.023997348 -0.05872172
-0.07226637 0.0041559264 0.013354218 0.053683925 -0.060383942 0.0069347275 -0.021515932 0.0859092
0.084716156 -0.009885533 -0.091780566 0.0033008226 -0.040523693 -0.044405166 -0.04530169 -0.01674442
-0.031651083 0.01289425 -0.0018679716 -0.06657816 -0.027618732 0.0259003 0.017538354 0.0077550574
0.13229094 -0.059796557 0.02761828 -0.055184137 -0.023551267 -0.065598816 0.011525645 0.014653443
-0.016157407 0.062498745 -0.020358922 0.023981424 -0.0524207 0.048320264 -0.069843434 0.0645484
-0.028238166 0.0485515 -0.10581072 -0.009393796 -0.07221623 -0.07614886 0.046879634 -0.043794632
-0.09422604 -0.0011484015 0.018001735 -0.02728464 -0.03165864 0.061239455 -0.122303806 -0.07718882
0.025663592 0.025837593 -0.013834729 0.029804325 0.039536376 0.0035655259 0.09615355 0.03192805
-0.03595222 0.030841978 -0.05299069 0.005280601 0.035391476 0.04296844 0.01805652 0.019588865
0.014196023 0.05954844 -0.0933474 -0.017406361 -0.03731285 -0.07659606 0.049354415 -0.017875953
0.03525283 -0.03498246 -0.0914044 0.004084455 0.012650606 0.042260796 -0.031980626 -0.02125603
-0.048349928 -0.05482016 -0.07953147 0.057404276 -0.01371187 0.030900462 0.008273894 0.08854329
0.015750222 0.093639724 -0.03337902 -0.05391165 0.12142798 0.022005582 -0.03574779 0.07955921
0.02273736 -0.019879662 -0.056715675 0.051534634 -0.019990282 0.005817574 0.013036042 -0.076555975

arith.constant6 f4 [64, 3, 3, 64]
00000000: 480c 063d 0139 62bd d1c5 bdbd ce12 6dbd
00000010: 33af 9bbc a0b7 28bd 5d4a 5b3d 12c8 b9bd
00000020: 60b2 46bd d3f1 023e 4088 2e3d d77b 9cbc
00000030: 76b6 93bc 1270 b13c 7712 cfbc 573e 6fbd
00000040: 48f9 263e 8043 1b3d 4d5f 953b 0369 433d
00000050: 2dc9 2f3d d3f7 e9bc e577 b13a 6a47 813c
00000060: f570 3e3d 7a49 67bd 5fb2 33bb 8120 edbc
00000070: 8bab 2b3d 1b52 803d dc46 ab3a af12 f7bc
00000080: 4190 debb c04e b0bd cc48 5bbd 1ced bcbb
00000090: 5cb5 a93d 2bb8 b23d c80d 1fbb bbf1 48be
000000a0: 6b15 2f3d 2443 ce3b 2748 84bd 87b1 ab3d
000000b0: bcd4 b3bc c363 953d 0199 afba e203 88bd
000000c0: 52b6 8f3c 8e4b 713c 8ab8 4d3d 9eb3 d3bd
000000d0: 9016 d23d 68d1 53bd 2518 1d3d 3689 88bd
000000e0: 52b8 b4bc 5f91 8e3c e17b 0cbc 8a51 d63d
000000f0: afd1 d8bc 0c34 a53c 8f69 17bd 0c5c 2dbc
00000100: 7270 a73c 92a0 1dbd 11b0 88bd 4c83 70bd
00000110: 7ea6 ce3d 38f5 9d3d 5388 15bb 9b39 753d
00000120: be7b 89bd 6261 1c3d e2c0 673c 376d 9abc
00000130: bee9 a6bd 5670 82bd 4b22 243c 4524 0f3d
00000140: e8de 32bd 2b32 bc3c 07ce 19bd 1424 5c3b
00000150: 4811 e73c 3e0d b5bc b244 fabc 028f 77bd
00000160: 6256 873b 27fd 2ebd 394a 84bd f3b8 42bd
00000170: 3f6a 6f3d ab5f 803d 89d0 d33c f30e 1bbd
00000180: 9624 29bd ab53 c6bd c33f adbd 7c13 c4bc
00000190: 01d6 b5bc 7bc9 97bc 039b 323d c360 4dbd
000001a0: 36c0 283d 58d9 5bbd 00e0 26be c798 053d
000001b0: a6c0 f4bc abc8 96bd dd67 853d 353e 6abd
000001c0: c873 4c3d 108f ca3c c1c7 fc3c 0f4e abbb
000001d0: 4172 9b3c 312a dfbd 6402 7abd c949 8d3d
000001e0: 7203 51bd 8e5e 633d e0bb 38bd db3d d03d
000001f0: 6cd5 c23c fdd1 81bd 2cd3 713e d1a4 c03b
00000200: d2b0 6abd 9602 9aba 5653 1ebe 23f4 5d3d
00000210: c3a6 96bd 9870 93bc 2d39 53bd 4c2b 96bd
00000220: 5172 76bd 2988 4abd 9355 17bd b2bb a8bd
00000230: c7de 22be aa54 563d abd9 a7bd 9a9e 98bc
00000240: eff9 71bc c8e7 423c 425c 173d a91d a1bc
00000250: d663 9abd fe60 d7bc 5176 21bd a652 34bd
00000260: 6d99 b3bd 2177 ebbc e520 2bbd de42 ffbd
00000270: 7a0a 213c 5b20 28bd f667 8fbd 3084 abbd
00000280: 3197 4fbe c1f8 94bd dc49 edbd e0a8 d2bc
00000290: 7ce0 8e3c 491d bbbd 0b72 6a3d c27d a83c
000002a0: e8e9 f4bd a891 bcbc 70f6 34bc e95b c63d
000002b0: 9c17 dbbd 6e75 cfbd 37c6 a83b 557c eabc
000002c0: f34c 213b 80f5 533d 11ff 3fbd c828 a6bd
000002d0: 1f4a 94bd 655a b3bc aeae 3c3d 4880 1ebd
000002e0: 0926 683c 62ba bfbc 5986 f0bc 5455 983d
000002f0: 7ab4 86bd 0786 8cba a5d5 a33d e1bf aebc
00000300: 13cb b8bd 7894 0abc 536e 3f3d ce2e 3e3c
00000310: 7c1b 3cbd e2e7 23be 16f0 8bbd 2129 fe3c
00000320: b3fc 6f3d 7680 ac3d 0b00 1dbd 8c59 fbbd
00000330: a486 9ebb cebe 77bc af6b 3cbd 2c6b 9cbc
00000340: cf65 92bd e0b2 8a3d 1e5a e5bd 0f32 e73d
00000350: 66d2 d0bc 4c7d 39bb 2205 9abd 3999 893d
00000360: e117 ab3c e9c6 c1bc ab06 ce3d 2be2 02be
00000370: ed6e 583c 9fc6 4fbc 4493 a03c e6dd 843b
00000380: 6881 07bd 1fb9 f1bd 5c81 1abe 0cce 39bd
00000390: 86df c43d d16d dcbd 8e6f 703d 2dbb 91bc
000003a0: bb00 903d 5ca1 bebd f88e 9cbd 211b 243d
000003b0: 601c d6bc 0fb9 f2bc dd79 ce3d a096 d2bd
000003c0: f0f5 843d a6c3 88bd ca41 3e3d 7bcf febd
000003d0: 8b19 4a3d 9f9b febb 15be d0bc d990 4a3d
000003e0: d57c 853d 1cd8 093d 1fe1 a6bd 2084 31bd
000003f0: 5674 8cbd 45b0 893c 79ca d53c 0cec 06be
0.032726556 -0.055230144 -0.09266246 -0.05787926 -0.01900444 -0.041190743 0.053537715 -0.090713635
-0.048509955 0.12787561 0.042610407 -0.01910202 -0.01803134 0.021659885 -0.02527736 -0.05840906
0.16306031 0.03790617 0.00455848 0.04770757 0.042916466 -0.028560555 0.001353976 0.015781123
0.046494443 -0.056466557 -0.002741955 -0.028946163 0.041911643 0.062656604 0.0013067382 -0.030160276
-0.0067920987 -0.0860877 -0.05353622 -0.0057655703 0.08286545 0.087265335 -0.002426969 -0.19623463
0.042745035 0.006294625 -0.064590745 0.0838347 -0.021952026 0.07294419 -0.0013397039 -0.066413656
0.017542992 0.014727486 0.05022482 -0.10336994 0.1025821 -0.051713377 0.038353104 -0.06666796
-0.022060547 0.017403303 -0.008574457 0.10464771 -0.026467172 0.02016642 -0.036965903 -0.010581028
0.02043936 -0.03848321 -0.06674207 -0.058718964 0.100903496 0.077127874 -0.0022816851 0.05986939
-0.06713055 0.03817881 0.014145108 -0.018850906 -0.081500515 -0.06369083 0.010017942 0.0349467
-0.04366961 0.02297314 -0.03755 0.003359084 0.028206483 -0.02210104 -0.030550335 -0.060439117
0.0041301707 -0.042721894 -0.06459469 -0.047539663 0.058450934 0.06268247 0.025856273 -0.037856054
-0.041294657 -0.09683927 -0.08459427 -0.023935072 -0.022196772 -0.01852869 0.043604862 -0.050141107
0.04119893 -0.053674072 -0.16296387 0.032616403 -0.029877018 -0.07362493 0.06513951 -0.05718823
0.049915105 0.02472642 0.030856969 -0.005227811 0.018975379 -0.10896719 -0.061037436 0.06898839
-0.051028676 0.055510096 -0.045101047 0.10168048 0.023783408 -0.0633888 0.23615712 0.0058790226
-0.057297535 -0.0011750038 -0.15461478 0.054187905 -0.07356026 -0.017998025 -0.0515682 -0.07332477
-0.060167614 -0.04944626 -0.036946844 -0.08238925 -0.15905295 0.052326836 -0.08195814 -0.018630315
-0.0147690615 0.011896081 0.03695322 -0.019667463 -0.075385734 -0.026291367 -0.039419476 -0.044024132
-0.08769498 -0.028743329 -0.041779418 -0.12463926 0.009829158 -0.04104648 -0.07002251 -0.08374822
-0.20272519 -0.072740085 -0.11586353 -0.025715292 0.017441027 -0.09136445 0.057237666 0.020567778
-0.119586766 -0.023018673 -0.011045083 0.09685499 -0.106978625 -0.1012982 0.005150582 -0.02862374
0.0024612516 0.0517478 -0.04687411 -0.08113247 -0.072407 -0.02189369 0.046065025 -0.038696557
0.014169225 -0.023404304 -0.029360937 0.0743815 -0.06577392 -0.0010721096 0.07999734 -0.02133173
-0.09023108 -0.008458249 0.046736073 0.011607839 -0.04592465 -0.16006425 -0.06832902 0.031025471
0.058590602 0.084229395 -0.03833012 -0.12272939 -0.0048378278 -0.015121175 -0.046001133 -0.019094072
-0.07148325 0.06772399 -0.11198829 0.11288845 -0.02549095 -0.0028303443 -0.0752051 0.06718678
0.02088541 -0.023654418 0.100598656 -0.12781589 0.0132100405 -0.012681632 0.019601472 0.0040547727
-0.033082396 -0.11802887 -0.15088409 -0.045362517 0.09612946 -0.10763133 0.058700137 -0.017789448
0.07031389 -0.093081206 -0.076444566 0.040064935 -0.026136577 -0.029629258 0.10081837 -0.10282636
0.06492221 -0.06677942 0.04644946 -0.124419175 0.049340766 -0.0077700163 -0.025481263 0.049454544
0.065179504 0.033653364 -0.08148407 -0.043338895 -0.06858127 0.016807685 0.026097523 -0.13175982

arith.constant7 f4 [64, 3, 3, 64]
00000000: f0ab 813c c191 cabd d078 d7bd 8cac e33c
00000010: 462c d6bc 7931 793c ae7a 55bd 90ad c6bd
00000020: 77f6 52bc 8934 b9bc 555f cc3d ac8d 0e3e
00000030: 5879 ce3c 301c a23a 95ea 773c ab2d 74bd
00000040: d50d 7f3d a998 32bb a6ae 32bd 9938 8c3d
00000050: 0c92 813c f2d5 8f3d 3326 353c f131 93bd
00000060: dcf4 a4bc be2a 073c 1f8d 053d b15a 23bd
00000070: 1ea6 373b 6b2f aabc 828f 5abd fba3 983a
00000080: ecaf e23c 1347 82bd e3f3 ea3b dccc c43d
00000090: b913 0ebc e81d 993d 4a3c 1cbd af84 64bd
000000a0: 77ae 03bd 8fa1 683c f2da 1b3d 048d 203b
000000b0: 7a6e 2b3d a561 28b6 f272 fe3c 95b9 483c
000000c0: fb24 7d3d 814d 8e3d 22d8 0cbd 07e5 d9bd
000000d0: f4c1 223b 50db 2f3b 61e2 af3b f9dc 84bd
000000e0: bb93 a9bc d523 9a3c 91ff 613d 31b1 10bc
000000f0: d9a7 57be 41a9 d0bd f9f8 ff3c 493f 26bd
00000100: eb91 69bd 10a6 243c 262f 07be 9c17 a0bd
00000110: 39f9 05be 00bb d8bb 524c 873d 9c93 3bbd
00000120: de6c 973c b4ea 89bd febe 103e 1de4 1b3d
00000130: 139a 803d 272e 143b f819 143d 481f 2abe
00000140: 128b 603c c9a1 d9ba d481 983c d3f9 6abc
00000150: bdd1 4b3d 47e6 0c3d 2ac6 58bd 3aff 85bd
00000160: b921 903d b68b 9b3d 2212 7e3d f2b8 4b3d
00000170: c3a1 8dbc 874f 743d 6dd8 123d 9a4d 6fbd
00000180: f18b 03be ce99 4cbd 8d7c ed3c 74b0 9d3c
00000190: a3cd 833b d118 23bd e7a8 0fbe de24 df3b
000001a0: 9945 d5bc d471 313d 2bd3 8e3c ca2c c63b
000001b0: 34fe 57bd 9e01 c5bc 5457 b0bd ddd7 8c3c
000001c0: c68b a53b af70 233d 75f6 e7bc c55a 263d
000001d0: b0cc b6bd f1aa 94bc f9cf c13c ccc1 02be
000001e0: 4165 ef3c da72 b33d d9bf 1cbd 3363 b53d
000001f0: c87e acbb 4425 c8bd d865 693d 55e4 e93c
00000200: 1ea9 093d c3a4 e0bd d89b 5bbd e333 c8bd
00000210: dc1c 62bc 5bbc cf3a d45e 863d 27b8 a4bd
00000220: c1d8 0bbd a255 88bd 11da f73b 6e05 f73d
00000230: c024 a13d dc58 12bd d1c0 1ebd 6766 fbbc
00000240: 40c6 80bd c69b 5d3c 1baa 83bc 36ed b93d
00000250: a780 163d 7309 413d b189 1a3d 4c0d 23bd
00000260: e6c3 c93a c472 623c 4923 06bd b63a 82bd
00000270: 62fc e1bc a732 7cbd 355e b5bd 1a2d 8e3d
00000280: 4420 34bd 25dd 88bd 3460 dfbc 8421 b83d
00000290: fd45 a9bc 2909 75bb efad 35bd 5cdf 3dbd
000002a0: 61f6 013d a841 3bbd 5392 25bd c25b 9f3b
000002b0: 5382 a4bc 56d4 c3bb 21fa 703c b224 b33d
000002c0: 7d06 c03b 24f0 413d d627 873c b017 f03c
000002d0: c9b2 8ebd d10d aa3d 5e37 04bc af5e e8bd
000002e0: a562 fc3c e8a7 64bd f6cc b13c 2762 363d
000002f0: f9f7 2ebd 5b4a 67bd c1ff 16bd dd54 2e3d
00000300: 120c a23d 7c84 c4bd a133 13be 1c4a c0bd
00000310: e28d 8e3b dee9 573d dbd4 de3c 899c c5bd
00000320: 3424 b4b9 3b2f 9c3d b3ca a73c 06f8 913d
00000330: 675a 793d 193d 8b3d 9533 3f3d 38e0 b6ba
00000340: 21d2 37bd 39b6 07bd 2442 78bd e9f2 83bb
00000350: 727b f1bb 1253 be3c 2bb1 6cbd a837 11be
00000360: 80ab 22bd a5b3 003c 4d39 e5bc 11df 503c
00000370: 4dec 20be 6ebf 5d3c b229 e6bd 1ab4 493d
00000380: 1bd8 52bc 0fba 123c fbce 763d 6add 833d
00000390: 9463 363d a111 b4bc fabc 1abd c241 72bc
000003a0: 61f7 a03d 8010 d4bb c2b3 8fbd 8231 88bd
000003b0: 9810 9b3d 5a6c e53d b863 b0bc e4ee afbd
000003c0: 5ac6 793d b9fd 823d 3ed0 8c3d b83b b9bd
000003d0: a0cb cabd 1c39 6e3c 8287 49bd 0c80 20bd
000003e0: db05 90bc b3a6 9dbc 0797 dabc 7df7 8a3d
000003f0: be0c c7bd e99b 07bc 9b2f b9bc 11cf 29bc
0.015829057 -0.098910816 -0.1052109 0.027792238 -0.026144158 0.015209549 -0.05211895 -0.09701073
-0.012876145 -0.022608059 0.09979121 0.13921231 0.025204346 0.001236802 0.015131612 -0.059613865
0.06226905 -0.0027251637 -0.04362359 0.06846733 0.01581671 0.07023229 0.011056471 -0.0718726
-0.02013629 0.008249937 0.032605287 -0.039881412 0.0028022598 -0.020774564 -0.053359516 0.001164555
0.027671777 -0.063612126 0.007170187 0.09609386 -0.008671694 0.07476407 -0.038143434 -0.0557906
-0.032148805 0.014198675 0.0380506 0.0024498114 0.041853406 -2.5090787e-06 0.03106067 0.012251277
0.061802845 0.069483764 -0.034385808 -0.106393866 0.0024834843 0.0026833601 0.0053675626 -0.0648746
-0.020700326 0.018815914 0.055175368 -0.008831308 -0.21060123 -0.101885326 0.03124665 -0.040587697
-0.057023924 0.010049358 -0.1320158 -0.07817003 -0.13083352 -0.006614089 0.06606354 -0.04579507
0.01848453 -0.06734219 0.14135358 0.038059343 0.06279387 0.0022610517 0.03615758 -0.16613495
0.013705032 -0.0016604002 0.018616594 -0.014341789 0.04976057 0.034399297 -0.05292336 -0.06542821
0.07037682 0.07595007 0.06202901 0.049736924 -0.017289048 0.059646156 0.03585093 -0.058423616
-0.12846352 -0.049951367 0.028990055 0.019249178 0.0040223165 -0.03981859 -0.14029275 0.006809815
-0.026034163 0.043321446 0.017434677 0.0060478197 -0.05273266 -0.024048623 -0.086104065 0.017192775
0.0050520627 0.039902385 -0.028315762 0.04061391 -0.0892576 -0.018147917 0.02365874 -0.1276924
0.029223086 0.087621406 -0.038268898 0.088568114 -0.005264137 -0.09772733 0.05698189 0.02855126
0.03360855 -0.10968926 -0.05361542 -0.097755216 -0.013800826 0.0015848981 0.06561056 -0.08042937
-0.03414226 -0.06656958 0.0075638373 0.120615825 0.07868338 -0.035729274 -0.038758103 -0.030688478
-0.06287813 0.013525909 -0.016072324 0.090784475 0.036743786 0.047128152 0.03772897 -0.039807603
0.0015393465 0.013821308 -0.032748494 -0.063588545 -0.027586166 -0.061571743 -0.08855859 0.06942196
-0.043976083 -0.06682805 -0.027267553 0.089907676 -0.020663256 -0.0037389493 -0.04435533 -0.04635559
0.031729106 -0.04571691 -0.04042275 0.0048632333 -0.020081675 -0.00597624 0.014708073 0.087472335
0.0058601485 0.047348157 0.016498487 0.02930817 -0.06967694 0.083034165 -0.008069841 -0.113461845
0.030808756 -0.05582419 0.021704178 0.0445272 -0.042716954 -0.056467395 -0.036865 0.0425614
0.079124585 -0.09595582 -0.14375164 -0.09389135 0.00435041 0.052713268 0.027201107 -0.09648997
-0.0003435925 0.07626196 0.020482397 0.07127385 0.06087723 0.06798763 0.04668005 -0.001395232
-0.04487813 -0.033132765 -0.06060995 -0.00402676 -0.007369452 0.02323297 -0.057786148 -0.14181387
-0.039714336 0.007855331 -0.027981425 0.012748496 -0.15715142 0.01353441 -0.112384215 0.049244024
-0.012868906 0.008955493 0.060255986 0.06438716 0.04452856 -0.021981062 -0.03777788 -0.014786186
0.07859684 -0.0064716935 -0.07016708 -0.06650068 0.075715244 0.11202307 -0.021531925 -0.08590487
0.06098018 0.0639605 0.068756565 -0.090445936 -0.0990212 0.014539983 -0.049201496 -0.039184615
-0.017580917 -0.019244527 -0.026683344 0.06785486 -0.09719227 -0.008276918 -0.022605708 -0.01036431

arith.constant8 f4 [64, 3, 3, 64]
00000000: cb76 473d 624a 11bc 4d84 db3b aaa8 2eba
00000010: 7488 0bbb 2b38 7cbd 9c1d 8bbc 916f 73bd
00000020: 9064 36bd a279 62bd bc1e b6bc 1a77 9fbc
00000030: 17f9 82bd 6a59 42bd a606 583c b4ff dd3c
00000040: 9147 c7bc e4f4 87bd 4eae 2ebc e022 183c
00000050: b813 79bd 533b 33bd d042 96bb aafe d3bd
00000060: 1933 10bc ff5e 603d 8eb8 96bd 9628 d3bb
00000070: 6fdd 96bd d838 44bd efc8 0bbc e424 2bbd
00000080: f2cf 8abc aa79 0ebc 4dc4 613d 868b 993c
00000090: 8825 373d 54df 4a3d 9d14 c3bc 6f02 14bc
000000a0: 345f 953c 26ce 60bd 502d 3ebb db55 56bc
000000b0: 7a9f 963a e33d 6e3d 4496 a03c 8642 233d
000000c0: cda6 2e3d de0b 91bc b4a6 023d 4e6a 8e3c
000000d0: 0bd7 dbbc fe61 47bd ff5d 49bc 24f2 98bd
000000e0: d92f 48bd 9e53 9d3c 2d2b 72bb d1ca f9bc
000000f0: 58f7 f23c 6e0e 9e3c 5a73 653d 5ee4 3c3c
00000100: a024 8b3c 6f1b 04bd 3455 bb3c 8675 7fbd
00000110: 5218 13bd 0545 353d 5652 4e3d f396 99bc
00000120: 2bec 0bbd c1b7 79bc 6341 57bd 402b f7bb
00000130: f3cb 1dbd c8b3 a8bb 5b71 7bbd ec9d 60bd
00000140: a697 27bd 6111 a23c 833b a2bd 585e b5bc
00000150: bb89 433c eefe bcbc 0440 93bb 219e 64ba
00000160: 6763 883d 3879 b93c 56f2 96bd f678 14bc
00000170: 8d01 fb3c 76f1 53bc c5ea 20bc dff7 713d
00000180: d075 253d f6b0 ab3d 5979 e53c 5ceb e1bc
00000190: 95c5 c43c f735 9b3c a8aa 9e3c 6b2c 56bd
000001a0: 7cfb 58bd 6bbb 313c a141 fd3b 4c50 673a
000001b0: 678d 1ebd 6cbf 393d 6874 6cbd c405 4d3d
000001c0: 2dad 8bbd eec9 a83c b553 31bc f220 0b3c
000001d0: bd52 49bd b7e9 523c bf87 823c 4baf 143b
000001e0: 2816 f1bc 63ad 083d 8e96 9cbd 1d75 1fbd
000001f0: c8cd 0bbd 4ddf b3bd a87f 6bbc 9969 a1bd
00000200: 0e3e 59bd e76f 803d 42b5 87bd 737e 1bbc
00000210: ecba ccbd 14ef 03bd fbeb 29bd 4520 dbbc
00000220: f93d afbb 63bb f83b b8b2 66bd 50d9 a7bb
00000230: 4c6e c8bc ace1 b23c 2877 403c b2b6 153d
00000240: 398e 4bbb b3ee 16bd cd6d 2cbd f097 58bd
00000250: 1e48 333d f9a4 a2bd 0f66 82bb e644 ca3c
00000260: bd08 823d 52f1 14bd 007e 5c3a 9cd7 95bd
00000270: 3700 c9bc 73fb 49bd 6716 b63b ffbc 90bd
00000280: 1b63 573b 8221 77bc 38a1 b2bc ff8b 30bc
00000290: aec6 fa3c 33c4 3f3d 7c1e 85bd f9c6 e1bc
000002a0: 98e7 33bc 39df 7c3d bc74 8bbd d974 93bc
000002b0: fcc1 f0bb 1835 5cbd a64f e3bc 86f4 95bd
000002c0: c6a7 853d 9848 fe3a 6be5 82bd 3005 753c
000002d0: f86b d63c 5e59 7dbd f47a c4bc cd47 563d
000002e0: bf3c 353d db4b 873c b586 4dbd d756 123c
000002f0: 1ed1 c0bc 7089 b93c 7595 a6bb b412 0a3d
00000300: 760f 023d aa0f 363d b088 eb3b 5cef d3bb
00000310: 7f6c 9f3c b470 60bd ed82 f5bc 8245 553d
00000320: b727 303d 9f21 373d 3697 71bd 7874 6e3c
00000330: f734 cebb 4c43 5a3b 160e 113d 6ef3 6cbc
00000340: 1ce3 5dbd 63da b33c 1281 273d cef6 36bd
00000350: 6b7c 823d a5ef 2a3d 5d76 6abd 108a 16bd
00000360: b1ae 7abd 8df1 e23c f662 053d f4e9 4e3d
00000370: 7f11 7139 3402 56bd 6e7b 873c 345a 8fbd
00000380: 10b2 7cbd dd33 623d 91e7 a63c ccb9 d4bd
00000390: ee40 19bd 2f94 e1bc 0640 9abd 0909 7ebd
000003a0: a812 643d 674e b53c be79 9abd 3789 88bd
000003b0: 0cc8 463d 628e 0ebd 8901 093c 773b 93bd
000003c0: e6f7 d23b 6149 5cbd b18c 083d 0e4f 4c3d
000003d0: 1707 d13b 3dc8 f3bc 826c 07be 47cc 463d
000003e0: 72b3 743c 76d1 42bb 82dd 463d 508b f0bb
000003f0: 7904 833c 6b63 c8bd 61a5 653d d28c a8bd
0.048697274 -0.008867832 0.006699121 -0.0006662706 -0.002129105 -0.061577003 -0.016981892 -0.05943257
-0.044529498 -0.05529178 -0.022231452 -0.019465972 -0.06395166 -0.047448553 0.013185179 0.027099468
-0.024326118 -0.06638506 -0.010661675 0.009285659 -0.06080982 -0.043757748 -0.0045856014 -0.10351308
-0.008801245 0.054778095 -0.0735942 -0.006444047 -0.07366454 -0.047905773 -0.008531793 -0.04178323
-0.01694486 -0.008695999 0.055118848 0.018743288 0.044713527 0.04952939 -0.02381354 -0.009033783
0.018233873 -0.0548841 -0.0029018708 -0.013081993 0.001149162 0.05816449 0.019602902 0.039858364
0.042639542 -0.017705854 0.03189726 0.017384674 -0.026835939 -0.048677437 -0.012290477 -0.0746806
-0.048873756 0.01920491 -0.0036952004 -0.030492218 0.029658958 0.01929399 0.05601821 0.011529056
0.016985238 -0.032252725 0.022867776 -0.06236794 -0.035911866 0.044255275 0.05037149 -0.018748736
-0.034160774 -0.015241564 -0.052552592 -0.0075429976 -0.03852458 -0.0051483847 -0.0613874 -0.054838106
-0.040916108 0.019783678 -0.07921507 -0.022139713 0.011934693 -0.023070779 -0.0044937152 -0.0008721073
0.066595845 0.02264081 -0.07370441 -0.009062042 0.030640388 -0.012935987 -0.009821598 0.05907428
0.040395558 0.08383362 0.028011965 -0.027578048 0.024019996 0.01894663 0.019368485 -0.052288454
-0.05297421 0.010847907 0.007728771 0.0008823916 -0.03870907 0.04534857 -0.0577282 0.050054327
-0.0682014 0.0206041 -0.01082318 0.0084917415 -0.04915117 0.012873105 0.01593387 0.002268749
-0.02942951 0.03336848 -0.076459035 -0.038930047 -0.034131795 -0.087828256 -0.014373697 -0.07881469
-0.053037696 0.06271344 -0.06626369 -0.009490597 -0.0999659 -0.032210425 -0.041484814 -0.026748786
-0.005347964 0.0075906976 -0.056322783 -0.005122341 -0.024466656 0.021836124 0.011747159 0.036551185
-0.0031060113 -0.036848735 -0.0420969 -0.052879274 0.04376995 -0.07941622 -0.0039794515 0.024691056
0.06349323 -0.036362953 0.00084111094 -0.07316515 -0.024536235 -0.049312066 0.00555687 -0.07067298
0.0032865468 -0.0150836725 -0.02180539 -0.010775565 0.030612316 0.04681797 -0.06499955 -0.027560698
-0.010980509 0.06173632 -0.06809375 -0.018000053 -0.0073473435 -0.05376157 -0.02774794 -0.0732203
0.06526141 0.0019400297 -0.06391414 0.01495485 0.02617453 -0.061852805 -0.02398441 0.05231457
0.044247385 0.016515663 -0.050177295 0.008931837 -0.023537215 0.022648543 -0.0050837346 0.033709243
0.031753026 0.044448532 0.0071879253 -0.006467743 0.019460915 -0.054794982 -0.029969657 0.05206824
0.043006625 0.044709798 -0.058982097 0.0145541355 -0.006292935 0.0033304272 0.035413824 -0.014462335
-0.054171667 0.02195472 0.040894575 -0.044668965 0.06371387 0.04173245 -0.057241786 -0.03675276
-0.061201755 0.027703071 0.03256508 0.050516084 0.00022990069 -0.052248195 0.016538348 -0.06999627
-0.06169325 0.055225242 0.020374091 -0.103870004 -0.037415437 -0.02753648 -0.07531743 -0.062020335
0.055681854 0.022132112 -0.07542752 -0.06666797 0.048530623 -0.034803756 0.008362182 -0.071890764
0.006438243 -0.053780917 0.0333373 0.04988008 0.006379019 -0.029758567 -0.13224986 0.048534658
0.014935361 -0.00297269 0.04855109 -0.007340826 0.015993344 -0.097845875 0.05606592 -0.08229984

arith.constant9 f4 [64, 3, 3, 32]
00000000: 0585 72bd baba 80bd b83e 673d fee4 1bbd
00000010: 991a 2c3c 6e62 96bd caa5 343d 636e c6bd
00000020: 84a0 0dbd 12b9 90bc acf6 513d 3d62 393d
00000030: d81b 94bd e3bd 10bb 0e22 6a3d dd0e ecbd
00000040: e842 9abd 2cc2 05bd d791 c73c a8c7 5e3d
00000050: 4366 abbd 3628 b63c 7a17 b13d 843f 9e3d
00000060: e534 c33c 7e16 7dbd 4e76 043d 1de5 543c
00000070: 9365 22bd e37d f3bc 8873 663d 15f0 5c3c
00000080: b6da 03be 033f 843d 1292 32bd 3da0 b23c
00000090: cfd5 443c 6535 dbbd a7ce 96bc 9df8 a83c
000000a0: aee9 d6bd 21ef de3c 8913 84bc c159 82bd
000000b0: 7b9e 72bd 47e8 903d 8656 983c 1348 3c3d
000000c0: d839 a9bd 9365 05bd 30ff 7c3c e047 3fbd
000000d0: fd2c cbbc bac7 a8bd 99aa 483d 47a0 cf3d
000000e0: 6d45 90bd 87a4 55bb e35b 69bb 2ca3 82bb
000000f0: e8e9 fbbc 5317 1dbc 369c 59bd ccd7 c6bc
00000100: bc68 f2bc 17b6 183c 6538 183d df12 adbc
00000110: da24 92bc 2649 c93c 5ecf f03b 75e0 5a3d
00000120: 29c1 b73b 0f66 03bd e8a4 98bd a7a8 8cbc
00000130: f39d 5dbb 50ff 52bc f6a1 91bd a9e0 273d
00000140: 0c64 67bd 8710 d23c 80a3 9fbd 48bf 973c
00000150: b5de 383d 870f e1bd 3c85 183d 1aa2 e23d
00000160: 1c2e c9bc efe8 b2bd 9d9d 8a3c 960c 8dbd
00000170: a279 193e 7e95 7a3d 254c 76bc 1547 4abc
00000180: ed94 ecbd 4a29 883d fb51 8bbd f676 6b3d
00000190: acc3 b23d 3f72 653c a682 07bd 5d28 c13b
000001a0: df71 1c3d 164e c7bc 80db 4cbc c182 68bc
000001b0: a0ec debb d778 283d 85b9 993d 2b38 0cbd
000001c0: f0ae 2f3d e562 6b3d e258 94bd 582f 16bd
000001d0: 7a53 e03c 9609 b1bd 7171 d53d b57d d1bd
000001e0: 503c aa3b c84b e6bc 9dd9 e93c 58a3 8fbd
000001f0: 9a28 1c3d 2b96 03bd f113 7bbd 529c 863d
00000200: 4a9f 59bd edb5 933c cac1 9a3d f395 36bb
00000210: affb ba3d 9309 fcbd 6a8c 05be 6ea9 0e3e
00000220: 0b36 1dbe d3eb 3f3d 9bc4 08bd f83c 783c
00000230: 71fa 17bc 34ce 9f3c d910 863d de0d c9bd
00000240: 5a4a d13d c321 ac3c ee5f 8cbc c18a 8a3d
00000250: 7ee4 d63c 5f82 e33d 8de2 0a3e 99ac 683e
00000260: c40e 8d3d 7689 843d d1f1 79bd ca27 e13a
00000270: 0a82 2bbd 0bfa 13bd 0a8c a7bd 8309 453d
00000280: 1e33 afbd 7ad5 94bd 7fe9 ca3d 89f8 443d
00000290: e0c5 083b cd52 69bd 4dc0 503d 9c36 f5bb
000002a0: 06e8 eb3c 2e79 413d 3ab3 7c3d e92b dfbd
000002b0: 3545 083d 1ed6 863d db3d 573d 44b7 7f3d
000002c0: 15fe 4fbd 3a94 3ebd 9879 7abd cc82 fd3c
000002d0: 5122 b9bd 101f 9abd fa9b 18bd 2700 ee3d
000002e0: b2db a9bd 3f55 a4bc 6656 c03b 6216 003c
000002f0: 0d8b 3e3d 7477 d7bc d5de 893c 5dc5 abbc
00000300: e6ec 1abc ca59 7e3d 183f 143d 577f 513d
00000310: a545 bd3d 5e3d 863d 6b2b eabd 92d8 ae3d
00000320: 2369 863c cb26 46ba ba9b 2cbd c51f 15be
00000330: 8b2c e3bd 15b3 d2bc 51d0 09bd ca82 14bc
00000340: 6782 f3bb a110 49bd 8b1c b63d b114 b33b
00000350: 303a 093d a107 f1bd 15c9 85bc 1083 efbd
00000360: fa48 5fbd e863 9fbd 9e40 dbbc 2b29 083c
00000370: 5f21 0a3e 6ed6 6a3d 2e8e 61bd 8829 973d
00000380: 2a7a a53d 1d2d 09bd 9e5f ad3d 0a87 5dbd
00000390: 4696 1c3d 9dfd c03b e27a 683c ed38 1c3e
000003a0: 35e5 33be cc53 8b3d c9c2 a23d aabc b1bd
000003b0: 152d 983d 7656 0c3e 269f 6d3d fc71 b43d
000003c0: 0d1f 8d3d 14f0 babc 7be5 c73a 2f0e a83c
000003d0: 5893 c6bc c677 20be c51e 35bd 6497 c0bb
000003e0: 5f26 fcbb dc92 b03c 1c20 833d f7fd a13c
000003f0: 2c66 2dbb 4e26 df3c e571 4abd 7c6b b63d
-0.05920889 -0.06285615 0.056456298 -0.03806018 0.010504388 -0.07342993 0.04410342 -0.09689023
-0.034576908 -0.017666373 0.051260635 0.045259703 -0.07231873 -0.0022085838 0.057161383 -0.115262724
-0.075322926 -0.03265588 0.024361534 0.054389626 -0.08369114 0.022235971 0.08647056 0.077269584
0.023828933 -0.06178903 0.032339387 0.012994078 -0.03964765 -0.029723113 0.056262523 0.013484974
-0.128764 0.06457331 -0.043596335 0.021804923 0.012013867 -0.107035436 -0.018409086 0.02062636
-0.104937896 0.027213635 -0.016122596 -0.063647754 -0.05923317 0.070755534 0.018595945 0.045967173
-0.08262986 -0.03256757 0.015441701 -0.046699405 -0.024801726 -0.0824122 0.04899082 0.10137992
-0.07044492 -0.0032599287 -0.0035607747 -0.0039867368 -0.030751184 -0.00958808 -0.05312749 -0.024272822
-0.029590957 0.009320757 0.037163157 -0.021127163 -0.017839838 0.024571013 0.007348939 0.053436715
0.0056077433 -0.032079753 -0.07453328 -0.017170263 -0.003381607 -0.012878254 -0.0711097 0.040985737
-0.056491897 0.025642646 -0.07794857 0.018523827 0.045134265 -0.1098929 0.037236437 0.11066075
-0.02455812 -0.08735835 0.016920859 -0.06887166 0.14987805 0.061177723 -0.015032803 -0.012346049
-0.11551843 0.066485 -0.06802746 0.057486497 0.08728728 0.014004289 -0.03308358 0.0058947043
0.038194533 -0.024329226 -0.012503505 -0.01419133 -0.0068031102 0.041130867 0.07506088 -0.034233253
0.042891443 0.05746736 -0.072435156 -0.036666244 0.027383555 -0.086444065 0.10422028 -0.10229055
0.005195178 -0.028112307 0.028546149 -0.07013577 0.03812466 -0.032125633 -0.061298314 0.065727845
-0.053130426 0.018031085 0.075564936 -0.0027860373 0.09130036 -0.12306514 -0.13041845 0.1393182
-0.15352647 0.04685576 -0.033390623 0.015151255 -0.0092760185 0.019507505 0.06546182 -0.09817098
0.102192596 0.021012193 -0.017135587 0.067647465 0.026232 0.11108851 0.13562985 0.22722091
0.06887582 0.06471531 -0.06102163 0.0017177996 -0.04187206 -0.03612713 -0.08181007 0.048104774
-0.08554672 -0.0726728 0.09907817 0.048088584 0.0020869896 -0.05696373 0.050964642 -0.0074833166
0.02879716 0.047234707 0.06169436 -0.10897047 0.033269126 0.06583808 0.052549224 0.062430635
-0.05077942 -0.04652808 -0.061151117 0.030946158 -0.090397485 -0.07525456 -0.037258126 0.11621123
-0.08293857 -0.02006018 0.0058696745 0.0078178365 0.046519328 -0.026302077 0.016829887 -0.020968134
-0.009455895 0.06209735 0.036192983 0.05114683 0.09241799 0.065546736 -0.114340626 0.08537401
0.016407555 -0.0007558881 -0.0421407 -0.145629 -0.1109248 -0.025720159 -0.03364593 -0.009064386
-0.0074313167 -0.049088124 0.08892163 0.005465113 0.033502758 -0.11769033 -0.016331235 -0.1169492
-0.054512955 -0.077827275 -0.02676421 0.008310596 0.13489293 0.057333402 -0.055067234 0.07380968
0.080799416 -0.03349029 0.08465503 -0.05408386 0.03822925 0.005889608 0.014189454 0.1525609
-0.17567904 0.06803092 0.079473086 -0.08678563 0.07430474 0.13704857 0.058013104 0.08810803
0.06890688 -0.022819556 0.0015250886 0.020514576 -0.02424018 -0.1567069 -0.044218797 -0.005877422
-0.007695004 0.021554403 0.06402609 0.01977442 -0.0026458604 0.027239945 -0.049425025 0.0890722

arith.constant10 f4 [8, 64]
00000000: 7675 2fbe 44d2 183e 1cb4 f3bd 4e30 883e
00000010: 797d 7b3d 33f0 e83d e6c2 adbd 1321 233d
00000020: f01d 8d3c 1760 763c a620 22bd 6055 c73d
00000030: d53c b93d af8a a7bd 58fc 27be 8874 48bc
00000040: eb5c ac3d e155 a13d 4c05 c23d 9c8d c13c
00000050: 3ba5 49be 6069 a5be 58f2 b93d fbe8 003e
00000060: 95fa 133e 2cf0 04bd 766a 633c 6e6e 133e
00000070: c2e1 753e e532 22be bf4e f03d b33f bfbc
00000080: f99d 3dbe 95de 5c3e 4125 903d 7f30 34bd
00000090: 297a 40be 3fd4 763d 9b40 0a3e 5e84 05be
000000a0: 1270 d63c ea36 61bd 3b34 36be 585f 113d
000000b0: 9b15 903d d9ea 403d 126d 843d 916d 02be
000000c0: fe15 703e 3fb5 7bbd d1b9 693e f5e5 be3c
000000d0: 7bf2 85be cf9e 1c3d 1205 22be d8e1 943c
000000e0: 4191 87be da40 38bd d98d 45be dfee 25be
000000f0: 8ae1 683e c3fb 63be 3743 01be ea48 993d
00000100: dc83 5b3e ccc3 2ebe 6c93 ae3c 9ee0 45be
00000110: 17d5 843e bfa9 d0bd 2bd2 663e ae47 7ebe
00000120: 9cfd 193e 9ac5 93be 7783 2fbe b2e4 2d3e
00000130: 1b53 69be 3365 03be 1d5b 5bbd d7ff 923e
00000140: fb7b e93c c6ec 1c3e b2f5 4dbd d459 92be
00000150: fa3e cc3c 361d 0a3e b11f 56bd a49c 9cbe
00000160: e836 743d e2f8 4e3d 0343 24be 78ed 94be
00000170: f5ce c93d 35e6 09be 4c68 693e b9d0 bcbc
00000180: e68d 803e aff1 1e3e 5ffe b43c 9b13 b73d
00000190: 499f 85be f86a b13d b3e8 97be 7c40 8cbd
000001a0: 0b2d 053e f404 85bd cfe9 463e d56b 83be
000001b0: a0cf b4ba 1b15 f5bd 2c55 103d 8db7 d83d
000001c0: 8dbc 58be e66d 12be 54d3 61bd 8ff5 583e
000001d0: e675 d23d e782 32bd cf4c 463c 2c87 293e
000001e0: 150f abbd 2e6f a8bd 0ec7 a6bc 8536 e4bc
000001f0: 3bd4 173e aca9 243d 0de8 aebd c2b6 27b6
00000200: d51f 8d3e 4ff8 3e3e 470e 81bd cea1 323e
00000210: 3a3a 6bbc e647 41be 8d8e 2abe 721a 99be
00000220: 3ec7 073e 5e65 eeb9 1aca 8dba 4b1b d8bd
00000230: 3905 45be aa18 0c3e a73d 2cbe 7a8a 953c
00000240: 96c3 313e b17f d5bd 0ed8 f83d a565 26be
00000250: ace5 193e 0f99 6bbe 1eca d73d 615d 2b3e
00000260: ef88 8a3c c444 343e 4b62 613e 35c4 07be
00000270: 2411 b93d 2c6f 7dbe ed10 7fbc e5e5 08be
00000280: 5d0d 8a3e 2aa7 b23d 4bcd 5e3e d08f 0abf
00000290: d39c 2bbe de55 673e 45b5 21bc c1b8 99bd
000002a0: a323 753d 2646 77be 4b4b 593e 1c94 f3bc
000002b0: 9a1e adbe f85c 5bbe 554c 4cbe 0df5 8c3e
000002c0: 9a41 b13d 3275 4cbe 07a6 12be c71c 9fbe
000002d0: cd04 a43d eeae 33be 5f63 7d3e 7520 79be
000002e0: f5f1 023d af04 913e 267a debe fb05 bfbd
000002f0: b448 62be ad97 6dbe bddf 7ebe 5218 a9be
00000300: 45f5 b23d c3fd 4cbe d860 30be 703e eebd
00000310: ee5b c5be e821 323e 8ebc dfbd ecbe 8ebe
00000320: 6cb7 443e 2880 e33d b743 373e adae 93bd
00000330: 84b1 e1bd e094 08be 5ce3 24be f6a0 46be
00000340: 5b0a 983d de91 87be 6e1c 673e fb1d 8abd
00000350: 6fdb d13d 3017 17bd cda2 26bd e47c c83d
00000360: 50cb b3bc 8da0 81be 8f67 cb3d b03e 913e
00000370: dc88 a6be 22b7 8dbe b184 bebd 7db4 d9bd
00000380: 739d 6a3e bfda 1e3e 37fc 363e 8f11 aabd
00000390: 1e6c 8dbd 1846 91bd 200d 95bd f366 56be
000003a0: aa60 6f3e 4f87 1dbe 9550 473c 3222 78be
000003b0: 4f1f 79bd 93c4 9bbd 5299 7f3e d5dd 3ebe
000003c0: e804 823e f073 893e 9fed cfbd a6ba d9bd
000003d0: b971 243e 5fb3 acbd 8dbf f33c 8354 94be
000003e0: 10d6 9bbe 45ce 5b3e 9caa 463b 4441 76be
000003f0: be06 0cbd 18c9 8bbe 9bc5 103e f255 b23c
-0.17134652 0.1492396 -0.118995875 0.26599354 0.061398957 0.11373939 -0.084844396 0.039826464
0.01722619 0.015037558 -0.039581917 0.09733081 0.09044806 -0.08180749 -0.16404855 -0.012234814
0.0841616 0.07877708 0.094736665 0.023627095 -0.19691937 -0.32306957 0.090794265 0.12588875
0.14451058 -0.03245561 0.013880363 0.14397594 0.24011901 -0.15839727 0.117337696 -0.023345804
-0.18517293 0.21569283 0.070383556 -0.043991562 -0.187966 0.060261007 0.13501208 -0.13038775
0.026176486 -0.05498401 -0.17793362 0.035491318 0.07035371 0.04709897 0.06466116 -0.12737109
0.2344589 -0.061452147 0.2282479 0.023303011 -0.2616156 0.03823739 -0.15822247 0.018174097
-0.26478007 -0.044983722 -0.19292392 -0.16204403 0.22742286 -0.22264008 -0.12623297 0.074846104
0.21437019 -0.17066878 0.02131053 -0.19323966 0.25943825 -0.101886265 0.2254111 -0.24832031
0.1503815 -0.28861696 -0.17139994 0.16981772 -0.22785608 -0.12831573 -0.05355369 0.28710815
0.028501501 0.15324697 -0.05028314 -0.28584158 0.024932373 0.13487706 -0.052276317 -0.30588257
0.059622675 0.050530322 -0.16041188 -0.29087424 0.09853927 -0.13466723 0.22793692 -0.023048745
0.2510826 0.15521882 0.02209395 0.08939286 -0.26098087 0.08662981 -0.29669723 -0.06848237
0.13005464 -0.06495085 0.19425128 -0.25668207 -0.0013794787 -0.11966916 0.035237476 0.105818845
-0.21165676 -0.14299735 -0.05513318 0.21187423 0.102763936 -0.04358187 0.0121032735 0.1655547
-0.08352486 -0.08224331 -0.020358589 -0.027858028 0.14827053 0.040200874 -0.08540354 -2.4991318e-06
0.27563348 0.1864941 -0.06301551 0.17444536 -0.014357144 -0.18875083 -0.16655941 -0.2990299
0.13259599 -0.00045470422 -0.0010817677 -0.10552081 -0.19240274 0.13681284 -0.16820394 0.018254507
0.17359766 -0.10424746 0.12150584 -0.16249712 0.15029019 -0.23007606 0.10536598 0.1673484
0.016910998 0.17604357 0.22010152 -0.13258441 0.090364724 -0.2474944 -0.015568 -0.13368948
0.2696332 0.0872329 0.21758 -0.5412569 -0.16759042 0.2259135 -0.009869878 -0.07505942
0.05984844 -0.24147853 0.21220128 -0.02973371 -0.3381241 -0.21422184 -0.19950993 0.2753071
0.08655091 -0.19966581 -0.14321147 -0.31076643 0.08008728 -0.17547199 0.24744938 -0.24328788
0.03196903 0.28323886 -0.43452567 -0.093273126 -0.22098047 -0.23202391 -0.24890037 -0.33026367
0.08738188 -0.20018677 -0.17224443 -0.11633003 -0.385467 0.17395747 -0.10924636 -0.27880037
0.19210595 0.11108428 0.17896925 -0.07211051 -0.110201865 -0.13338041 -0.16102356 -0.19397339
0.0742385 -0.26478475 0.22569439 -0.067439996 0.10246932 -0.036887348 -0.040682603 0.09789446
-0.021947533 -0.25317803 0.099318616 0.2836814 -0.3252629 -0.27678782 -0.093026526 -0.106301285
0.22911625 0.15513133 0.1786965 -0.0830413 -0.06905387 -0.070934474 -0.07277894 -0.2093771
0.23376718 -0.15383647 0.012165208 -0.24231794 -0.060820874 -0.07605853 0.24960831 -0.1863931
0.25394368 0.26846266 -0.101527445 -0.106313035 0.16059007 -0.0843265 0.029754424 -0.28970727
-0.30436754 0.21465404 0.0030314093 -0.24048334 -0.034186117 -0.2730186 0.1413788 0.021769498
